VCN(
  (pspnet): pspnet(
    (convbnrelu1_1): conv2DBatchNormRelu(
      (cbr_unit): Sequential(
        (0): Conv2d(3, 16, kernel_size=(3, 3), stride=(2, 2), padding=(1, 1), bias=False)
        (1): BatchNorm2d(16, eps=1e-05, momentum=0.1, affine=True, track_running_stats=True)
        (2): LeakyReLU(negative_slope=0.1, inplace=True)
      )
    )
    (convbnrelu1_2): conv2DBatchNormRelu(
      (cbr_unit): Sequential(
        (0): Conv2d(16, 16, kernel_size=(3, 3), stride=(1, 1), padding=(1, 1), bias=False)
        (1): BatchNorm2d(16, eps=1e-05, momentum=0.1, affine=True, track_running_stats=True)
        (2): LeakyReLU(negative_slope=0.1, inplace=True)
      )
    )
    (convbnrelu1_3): conv2DBatchNormRelu(
      (cbr_unit): Sequential(
        (0): Conv2d(16, 32, kernel_size=(3, 3), stride=(1, 1), padding=(1, 1), bias=False)
        (1): BatchNorm2d(32, eps=1e-05, momentum=0.1, affine=True, track_running_stats=True)
        (2): LeakyReLU(negative_slope=0.1, inplace=True)
      )
    )
    (res_block3): Sequential(
      (0): residualBlock(
        (convbnrelu1): conv2DBatchNormRelu(
          (cbr_unit): Sequential(
            (0): Conv2d(32, 64, kernel_size=(3, 3), stride=(2, 2), padding=(1, 1), bias=False)
            (1): BatchNorm2d(64, eps=1e-05, momentum=0.1, affine=True, track_running_stats=True)
            (2): LeakyReLU(negative_slope=0.1, inplace=True)
          )
        )
        (convbn2): conv2DBatchNorm(
          (cb_unit): Sequential(
            (0): Conv2d(64, 64, kernel_size=(3, 3), stride=(1, 1), padding=(1, 1), bias=False)
            (1): BatchNorm2d(64, eps=1e-05, momentum=0.1, affine=True, track_running_stats=True)
          )
        )
        (downsample): Sequential(
          (0): Conv2d(32, 64, kernel_size=(1, 1), stride=(2, 2), bias=False)
          (1): BatchNorm2d(64, eps=1e-05, momentum=0.1, affine=True, track_running_stats=True)
        )
        (relu): LeakyReLU(negative_slope=0.1, inplace=True)
      )
    )
    (res_block5): Sequential(
      (0): residualBlock(
        (convbnrelu1): conv2DBatchNormRelu(
          (cbr_unit): Sequential(
            (0): Conv2d(64, 128, kernel_size=(3, 3), stride=(2, 2), padding=(1, 1), bias=False)
            (1): BatchNorm2d(128, eps=1e-05, momentum=0.1, affine=True, track_running_stats=True)
            (2): LeakyReLU(negative_slope=0.1, inplace=True)
          )
        )
        (convbn2): conv2DBatchNorm(
          (cb_unit): Sequential(
            (0): Conv2d(128, 128, kernel_size=(3, 3), stride=(1, 1), padding=(1, 1), bias=False)
            (1): BatchNorm2d(128, eps=1e-05, momentum=0.1, affine=True, track_running_stats=True)
          )
        )
        (downsample): Sequential(
          (0): Conv2d(64, 128, kernel_size=(1, 1), stride=(2, 2), bias=False)
          (1): BatchNorm2d(128, eps=1e-05, momentum=0.1, affine=True, track_running_stats=True)
        )
        (relu): LeakyReLU(negative_slope=0.1, inplace=True)
      )
    )
    (res_block6): Sequential(
      (0): residualBlock(
        (convbnrelu1): conv2DBatchNormRelu(
          (cbr_unit): Sequential(
            (0): Conv2d(128, 128, kernel_size=(3, 3), stride=(2, 2), padding=(1, 1), bias=False)
            (1): BatchNorm2d(128, eps=1e-05, momentum=0.1, affine=True, track_running_stats=True)
            (2): LeakyReLU(negative_slope=0.1, inplace=True)
          )
        )
        (convbn2): conv2DBatchNorm(
          (cb_unit): Sequential(
            (0): Conv2d(128, 128, kernel_size=(3, 3), stride=(1, 1), padding=(1, 1), bias=False)
            (1): BatchNorm2d(128, eps=1e-05, momentum=0.1, affine=True, track_running_stats=True)
          )
        )
        (downsample): Sequential(
          (0): Conv2d(128, 128, kernel_size=(1, 1), stride=(2, 2), bias=False)
          (1): BatchNorm2d(128, eps=1e-05, momentum=0.1, affine=True, track_running_stats=True)
        )
        (relu): LeakyReLU(negative_slope=0.1, inplace=True)
      )
    )
    (res_block7): Sequential(
      (0): residualBlock(
        (convbnrelu1): conv2DBatchNormRelu(
          (cbr_unit): Sequential(
            (0): Conv2d(128, 128, kernel_size=(3, 3), stride=(2, 2), padding=(1, 1), bias=False)
            (1): BatchNorm2d(128, eps=1e-05, momentum=0.1, affine=True, track_running_stats=True)
            (2): LeakyReLU(negative_slope=0.1, inplace=True)
          )
        )
        (convbn2): conv2DBatchNorm(
          (cb_unit): Sequential(
            (0): Conv2d(128, 128, kernel_size=(3, 3), stride=(1, 1), padding=(1, 1), bias=False)
            (1): BatchNorm2d(128, eps=1e-05, momentum=0.1, affine=True, track_running_stats=True)
          )
        )
        (downsample): Sequential(
          (0): Conv2d(128, 128, kernel_size=(1, 1), stride=(2, 2), bias=False)
          (1): BatchNorm2d(128, eps=1e-05, momentum=0.1, affine=True, track_running_stats=True)
        )
        (relu): LeakyReLU(negative_slope=0.1, inplace=True)
      )
    )
    (pyramid_pooling): pyramidPooling(
      (path_module_list): ModuleList(
        (0): conv2DBatchNormRelu(
          (cbr_unit): Sequential(
            (0): Conv2d(128, 128, kernel_size=(1, 1), stride=(1, 1), bias=False)
            (1): BatchNorm2d(128, eps=1e-05, momentum=0.1, affine=True, track_running_stats=True)
            (2): LeakyReLU(negative_slope=0.1, inplace=True)
          )
        )
        (1): conv2DBatchNormRelu(
          (cbr_unit): Sequential(
            (0): Conv2d(128, 128, kernel_size=(1, 1), stride=(1, 1), bias=False)
            (1): BatchNorm2d(128, eps=1e-05, momentum=0.1, affine=True, track_running_stats=True)
            (2): LeakyReLU(negative_slope=0.1, inplace=True)
          )
        )
        (2): conv2DBatchNormRelu(
          (cbr_unit): Sequential(
            (0): Conv2d(128, 128, kernel_size=(1, 1), stride=(1, 1), bias=False)
            (1): BatchNorm2d(128, eps=1e-05, momentum=0.1, affine=True, track_running_stats=True)
            (2): LeakyReLU(negative_slope=0.1, inplace=True)
          )
        )
      )
      (relu): LeakyReLU(negative_slope=0.1, inplace=True)
    )
    (upconv6): Sequential(
      (0): Upsample(scale_factor=2.0, mode=nearest)
      (1): conv2DBatchNormRelu(
        (cbr_unit): Sequential(
          (0): Conv2d(128, 64, kernel_size=(3, 3), stride=(1, 1), padding=(1, 1), bias=False)
          (1): BatchNorm2d(64, eps=1e-05, momentum=0.1, affine=True, track_running_stats=True)
          (2): LeakyReLU(negative_slope=0.1, inplace=True)
        )
      )
    )
    (iconv5): conv2DBatchNormRelu(
      (cbr_unit): Sequential(
        (0): Conv2d(192, 128, kernel_size=(3, 3), stride=(1, 1), padding=(1, 1), bias=False)
        (1): BatchNorm2d(128, eps=1e-05, momentum=0.1, affine=True, track_running_stats=True)
        (2): LeakyReLU(negative_slope=0.1, inplace=True)
      )
    )
    (upconv5): Sequential(
      (0): Upsample(scale_factor=2.0, mode=nearest)
      (1): conv2DBatchNormRelu(
        (cbr_unit): Sequential(
          (0): Conv2d(128, 64, kernel_size=(3, 3), stride=(1, 1), padding=(1, 1), bias=False)
          (1): BatchNorm2d(64, eps=1e-05, momentum=0.1, affine=True, track_running_stats=True)
          (2): LeakyReLU(negative_slope=0.1, inplace=True)
        )
      )
    )
    (iconv4): conv2DBatchNormRelu(
      (cbr_unit): Sequential(
        (0): Conv2d(192, 128, kernel_size=(3, 3), stride=(1, 1), padding=(1, 1), bias=False)
        (1): BatchNorm2d(128, eps=1e-05, momentum=0.1, affine=True, track_running_stats=True)
        (2): LeakyReLU(negative_slope=0.1, inplace=True)
      )
    )
    (upconv4): Sequential(
      (0): Upsample(scale_factor=2.0, mode=nearest)
      (1): conv2DBatchNormRelu(
        (cbr_unit): Sequential(
          (0): Conv2d(128, 64, kernel_size=(3, 3), stride=(1, 1), padding=(1, 1), bias=False)
          (1): BatchNorm2d(64, eps=1e-05, momentum=0.1, affine=True, track_running_stats=True)
          (2): LeakyReLU(negative_slope=0.1, inplace=True)
        )
      )
    )
    (iconv3): conv2DBatchNormRelu(
      (cbr_unit): Sequential(
        (0): Conv2d(128, 64, kernel_size=(3, 3), stride=(1, 1), padding=(1, 1), bias=False)
        (1): BatchNorm2d(64, eps=1e-05, momentum=0.1, affine=True, track_running_stats=True)
        (2): LeakyReLU(negative_slope=0.1, inplace=True)
      )
    )
    (upconv3): Sequential(
      (0): Upsample(scale_factor=2.0, mode=nearest)
      (1): conv2DBatchNormRelu(
        (cbr_unit): Sequential(
          (0): Conv2d(64, 32, kernel_size=(3, 3), stride=(1, 1), padding=(1, 1), bias=False)
          (1): BatchNorm2d(32, eps=1e-05, momentum=0.1, affine=True, track_running_stats=True)
          (2): LeakyReLU(negative_slope=0.1, inplace=True)
        )
      )
    )
    (iconv2): conv2DBatchNormRelu(
      (cbr_unit): Sequential(
        (0): Conv2d(64, 64, kernel_size=(3, 3), stride=(1, 1), padding=(1, 1), bias=False)
        (1): BatchNorm2d(64, eps=1e-05, momentum=0.1, affine=True, track_running_stats=True)
        (2): LeakyReLU(negative_slope=0.1, inplace=True)
      )
    )
  )
  (f6): butterfly4D(
    (proj): Sequential(
      (0): projfeat4d(
        (conv1): Conv3d(128, 16, kernel_size=(1, 1, 1), stride=(1, 1, 1), bias=False)
        (bn): BatchNorm3d(16, eps=1e-05, momentum=0.1, affine=True, track_running_stats=True)
      )
      (1): ReLU(inplace=True)
    )
    (conva1): sepConv4dBlock(
      (downsample): projfeat4d(
        (conv1): Conv3d(16, 16, kernel_size=(1, 1, 1), stride=(2, 2, 1), bias=False)
        (bn): BatchNorm3d(16, eps=1e-05, momentum=0.1, affine=True, track_running_stats=True)
      )
      (conv1): sepConv4d(
        (conv1): Sequential(
          (0): Conv3d(16, 16, kernel_size=(1, 3, 3), stride=(1, 1, 1), padding=(0, 1, 1), bias=False)
          (1): BatchNorm3d(16, eps=1e-05, momentum=0.1, affine=True, track_running_stats=True)
        )
        (conv2): Sequential(
          (0): Conv3d(16, 16, kernel_size=(3, 3, 1), stride=(2, 2, 1), padding=(1, 1, 0), bias=False)
          (1): BatchNorm3d(16, eps=1e-05, momentum=0.1, affine=True, track_running_stats=True)
        )
        (relu): ReLU(inplace=True)
      )
      (conv2): sepConv4d(
        (conv1): Sequential(
          (0): Conv3d(16, 16, kernel_size=(1, 3, 3), stride=(1, 1, 1), padding=(0, 1, 1), bias=False)
          (1): BatchNorm3d(16, eps=1e-05, momentum=0.1, affine=True, track_running_stats=True)
        )
        (conv2): Sequential(
          (0): Conv3d(16, 16, kernel_size=(3, 3, 1), stride=(1, 1, 1), padding=(1, 1, 0), bias=False)
          (1): BatchNorm3d(16, eps=1e-05, momentum=0.1, affine=True, track_running_stats=True)
        )
        (relu): ReLU(inplace=True)
      )
      (relu1): ReLU(inplace=True)
      (relu2): ReLU(inplace=True)
    )
    (conva2): sepConv4dBlock(
      (downsample): projfeat4d(
        (conv1): Conv3d(16, 16, kernel_size=(1, 1, 1), stride=(2, 2, 1), bias=False)
        (bn): BatchNorm3d(16, eps=1e-05, momentum=0.1, affine=True, track_running_stats=True)
      )
      (conv1): sepConv4d(
        (conv1): Sequential(
          (0): Conv3d(16, 16, kernel_size=(1, 3, 3), stride=(1, 1, 1), padding=(0, 1, 1), bias=False)
          (1): BatchNorm3d(16, eps=1e-05, momentum=0.1, affine=True, track_running_stats=True)
        )
        (conv2): Sequential(
          (0): Conv3d(16, 16, kernel_size=(3, 3, 1), stride=(2, 2, 1), padding=(1, 1, 0), bias=False)
          (1): BatchNorm3d(16, eps=1e-05, momentum=0.1, affine=True, track_running_stats=True)
        )
        (relu): ReLU(inplace=True)
      )
      (conv2): sepConv4d(
        (conv1): Sequential(
          (0): Conv3d(16, 16, kernel_size=(1, 3, 3), stride=(1, 1, 1), padding=(0, 1, 1), bias=False)
          (1): BatchNorm3d(16, eps=1e-05, momentum=0.1, affine=True, track_running_stats=True)
        )
        (conv2): Sequential(
          (0): Conv3d(16, 16, kernel_size=(3, 3, 1), stride=(1, 1, 1), padding=(1, 1, 0), bias=False)
          (1): BatchNorm3d(16, eps=1e-05, momentum=0.1, affine=True, track_running_stats=True)
        )
        (relu): ReLU(inplace=True)
      )
      (relu1): ReLU(inplace=True)
      (relu2): ReLU(inplace=True)
    )
    (convb3): sepConv4dBlock(
      (conv1): sepConv4d(
        (conv1): Sequential(
          (0): Conv3d(16, 16, kernel_size=(1, 3, 3), stride=(1, 1, 1), padding=(0, 1, 1), bias=False)
          (1): BatchNorm3d(16, eps=1e-05, momentum=0.1, affine=True, track_running_stats=True)
        )
        (conv2): Sequential(
          (0): Conv3d(16, 16, kernel_size=(3, 3, 1), stride=(1, 1, 1), padding=(1, 1, 0), bias=False)
          (1): BatchNorm3d(16, eps=1e-05, momentum=0.1, affine=True, track_running_stats=True)
        )
        (relu): ReLU(inplace=True)
      )
      (conv2): sepConv4d(
        (conv1): Sequential(
          (0): Conv3d(16, 16, kernel_size=(1, 3, 3), stride=(1, 1, 1), padding=(0, 1, 1), bias=False)
          (1): BatchNorm3d(16, eps=1e-05, momentum=0.1, affine=True, track_running_stats=True)
        )
        (conv2): Sequential(
          (0): Conv3d(16, 16, kernel_size=(3, 3, 1), stride=(1, 1, 1), padding=(1, 1, 0), bias=False)
          (1): BatchNorm3d(16, eps=1e-05, momentum=0.1, affine=True, track_running_stats=True)
        )
        (relu): ReLU(inplace=True)
      )
      (relu1): ReLU(inplace=True)
      (relu2): ReLU(inplace=True)
    )
    (convb2): sepConv4dBlock(
      (conv1): sepConv4d(
        (conv1): Sequential(
          (0): Conv3d(16, 16, kernel_size=(1, 3, 3), stride=(1, 1, 1), padding=(0, 1, 1), bias=False)
          (1): BatchNorm3d(16, eps=1e-05, momentum=0.1, affine=True, track_running_stats=True)
        )
        (conv2): Sequential(
          (0): Conv3d(16, 16, kernel_size=(3, 3, 1), stride=(1, 1, 1), padding=(1, 1, 0), bias=False)
          (1): BatchNorm3d(16, eps=1e-05, momentum=0.1, affine=True, track_running_stats=True)
        )
        (relu): ReLU(inplace=True)
      )
      (conv2): sepConv4d(
        (conv1): Sequential(
          (0): Conv3d(16, 16, kernel_size=(1, 3, 3), stride=(1, 1, 1), padding=(0, 1, 1), bias=False)
          (1): BatchNorm3d(16, eps=1e-05, momentum=0.1, affine=True, track_running_stats=True)
        )
        (conv2): Sequential(
          (0): Conv3d(16, 16, kernel_size=(3, 3, 1), stride=(1, 1, 1), padding=(1, 1, 0), bias=False)
          (1): BatchNorm3d(16, eps=1e-05, momentum=0.1, affine=True, track_running_stats=True)
        )
        (relu): ReLU(inplace=True)
      )
      (relu1): ReLU(inplace=True)
      (relu2): ReLU(inplace=True)
    )
    (convb1): sepConv4dBlock(
      (conv1): sepConv4d(
        (conv1): Sequential(
          (0): Conv3d(16, 16, kernel_size=(1, 3, 3), stride=(1, 1, 1), padding=(0, 1, 1), bias=False)
          (1): BatchNorm3d(16, eps=1e-05, momentum=0.1, affine=True, track_running_stats=True)
        )
        (conv2): Sequential(
          (0): Conv3d(16, 16, kernel_size=(3, 3, 1), stride=(1, 1, 1), padding=(1, 1, 0), bias=False)
          (1): BatchNorm3d(16, eps=1e-05, momentum=0.1, affine=True, track_running_stats=True)
        )
        (relu): ReLU(inplace=True)
      )
      (conv2): sepConv4d(
        (conv1): Sequential(
          (0): Conv3d(16, 16, kernel_size=(1, 3, 3), stride=(1, 1, 1), padding=(0, 1, 1), bias=False)
          (1): BatchNorm3d(16, eps=1e-05, momentum=0.1, affine=True, track_running_stats=True)
        )
        (conv2): Sequential(
          (0): Conv3d(16, 16, kernel_size=(3, 3, 1), stride=(1, 1, 1), padding=(1, 1, 0), bias=False)
          (1): BatchNorm3d(16, eps=1e-05, momentum=0.1, affine=True, track_running_stats=True)
        )
        (relu): ReLU(inplace=True)
      )
      (relu1): ReLU(inplace=True)
      (relu2): ReLU(inplace=True)
    )
  )
  (p6): sepConv4d(
    (conv1): Conv3d(16, 16, kernel_size=(1, 3, 3), stride=(1, 1, 1), padding=(0, 1, 1))
    (conv2): Conv3d(16, 16, kernel_size=(3, 3, 1), stride=(1, 1, 1), padding=(1, 1, 0))
    (relu): ReLU(inplace=True)
  )
  (f5): butterfly4D(
    (proj): Sequential(
      (0): projfeat4d(
        (conv1): Conv3d(128, 16, kernel_size=(1, 1, 1), stride=(1, 1, 1), bias=False)
        (bn): BatchNorm3d(16, eps=1e-05, momentum=0.1, affine=True, track_running_stats=True)
      )
      (1): ReLU(inplace=True)
    )
    (conva1): sepConv4dBlock(
      (downsample): projfeat4d(
        (conv1): Conv3d(16, 16, kernel_size=(1, 1, 1), stride=(2, 2, 1), bias=False)
        (bn): BatchNorm3d(16, eps=1e-05, momentum=0.1, affine=True, track_running_stats=True)
      )
      (conv1): sepConv4d(
        (conv1): Sequential(
          (0): Conv3d(16, 16, kernel_size=(1, 3, 3), stride=(1, 1, 1), padding=(0, 1, 1), bias=False)
          (1): BatchNorm3d(16, eps=1e-05, momentum=0.1, affine=True, track_running_stats=True)
        )
        (conv2): Sequential(
          (0): Conv3d(16, 16, kernel_size=(3, 3, 1), stride=(2, 2, 1), padding=(1, 1, 0), bias=False)
          (1): BatchNorm3d(16, eps=1e-05, momentum=0.1, affine=True, track_running_stats=True)
        )
        (relu): ReLU(inplace=True)
      )
      (conv2): sepConv4d(
        (conv1): Sequential(
          (0): Conv3d(16, 16, kernel_size=(1, 3, 3), stride=(1, 1, 1), padding=(0, 1, 1), bias=False)
          (1): BatchNorm3d(16, eps=1e-05, momentum=0.1, affine=True, track_running_stats=True)
        )
        (conv2): Sequential(
          (0): Conv3d(16, 16, kernel_size=(3, 3, 1), stride=(1, 1, 1), padding=(1, 1, 0), bias=False)
          (1): BatchNorm3d(16, eps=1e-05, momentum=0.1, affine=True, track_running_stats=True)
        )
        (relu): ReLU(inplace=True)
      )
      (relu1): ReLU(inplace=True)
      (relu2): ReLU(inplace=True)
    )
    (conva2): sepConv4dBlock(
      (downsample): projfeat4d(
        (conv1): Conv3d(16, 16, kernel_size=(1, 1, 1), stride=(2, 2, 1), bias=False)
        (bn): BatchNorm3d(16, eps=1e-05, momentum=0.1, affine=True, track_running_stats=True)
      )
      (conv1): sepConv4d(
        (conv1): Sequential(
          (0): Conv3d(16, 16, kernel_size=(1, 3, 3), stride=(1, 1, 1), padding=(0, 1, 1), bias=False)
          (1): BatchNorm3d(16, eps=1e-05, momentum=0.1, affine=True, track_running_stats=True)
        )
        (conv2): Sequential(
          (0): Conv3d(16, 16, kernel_size=(3, 3, 1), stride=(2, 2, 1), padding=(1, 1, 0), bias=False)
          (1): BatchNorm3d(16, eps=1e-05, momentum=0.1, affine=True, track_running_stats=True)
        )
        (relu): ReLU(inplace=True)
      )
      (conv2): sepConv4d(
        (conv1): Sequential(
          (0): Conv3d(16, 16, kernel_size=(1, 3, 3), stride=(1, 1, 1), padding=(0, 1, 1), bias=False)
          (1): BatchNorm3d(16, eps=1e-05, momentum=0.1, affine=True, track_running_stats=True)
        )
        (conv2): Sequential(
          (0): Conv3d(16, 16, kernel_size=(3, 3, 1), stride=(1, 1, 1), padding=(1, 1, 0), bias=False)
          (1): BatchNorm3d(16, eps=1e-05, momentum=0.1, affine=True, track_running_stats=True)
        )
        (relu): ReLU(inplace=True)
      )
      (relu1): ReLU(inplace=True)
      (relu2): ReLU(inplace=True)
    )
    (convb3): sepConv4dBlock(
      (conv1): sepConv4d(
        (conv1): Sequential(
          (0): Conv3d(16, 16, kernel_size=(1, 3, 3), stride=(1, 1, 1), padding=(0, 1, 1), bias=False)
          (1): BatchNorm3d(16, eps=1e-05, momentum=0.1, affine=True, track_running_stats=True)
        )
        (conv2): Sequential(
          (0): Conv3d(16, 16, kernel_size=(3, 3, 1), stride=(1, 1, 1), padding=(1, 1, 0), bias=False)
          (1): BatchNorm3d(16, eps=1e-05, momentum=0.1, affine=True, track_running_stats=True)
        )
        (relu): ReLU(inplace=True)
      )
      (conv2): sepConv4d(
        (conv1): Sequential(
          (0): Conv3d(16, 16, kernel_size=(1, 3, 3), stride=(1, 1, 1), padding=(0, 1, 1), bias=False)
          (1): BatchNorm3d(16, eps=1e-05, momentum=0.1, affine=True, track_running_stats=True)
        )
        (conv2): Sequential(
          (0): Conv3d(16, 16, kernel_size=(3, 3, 1), stride=(1, 1, 1), padding=(1, 1, 0), bias=False)
          (1): BatchNorm3d(16, eps=1e-05, momentum=0.1, affine=True, track_running_stats=True)
        )
        (relu): ReLU(inplace=True)
      )
      (relu1): ReLU(inplace=True)
      (relu2): ReLU(inplace=True)
    )
    (convb2): sepConv4dBlock(
      (conv1): sepConv4d(
        (conv1): Sequential(
          (0): Conv3d(16, 16, kernel_size=(1, 3, 3), stride=(1, 1, 1), padding=(0, 1, 1), bias=False)
          (1): BatchNorm3d(16, eps=1e-05, momentum=0.1, affine=True, track_running_stats=True)
        )
        (conv2): Sequential(
          (0): Conv3d(16, 16, kernel_size=(3, 3, 1), stride=(1, 1, 1), padding=(1, 1, 0), bias=False)
          (1): BatchNorm3d(16, eps=1e-05, momentum=0.1, affine=True, track_running_stats=True)
        )
        (relu): ReLU(inplace=True)
      )
      (conv2): sepConv4d(
        (conv1): Sequential(
          (0): Conv3d(16, 16, kernel_size=(1, 3, 3), stride=(1, 1, 1), padding=(0, 1, 1), bias=False)
          (1): BatchNorm3d(16, eps=1e-05, momentum=0.1, affine=True, track_running_stats=True)
        )
        (conv2): Sequential(
          (0): Conv3d(16, 16, kernel_size=(3, 3, 1), stride=(1, 1, 1), padding=(1, 1, 0), bias=False)
          (1): BatchNorm3d(16, eps=1e-05, momentum=0.1, affine=True, track_running_stats=True)
        )
        (relu): ReLU(inplace=True)
      )
      (relu1): ReLU(inplace=True)
      (relu2): ReLU(inplace=True)
    )
    (convb1): sepConv4dBlock(
      (conv1): sepConv4d(
        (conv1): Sequential(
          (0): Conv3d(16, 16, kernel_size=(1, 3, 3), stride=(1, 1, 1), padding=(0, 1, 1), bias=False)
          (1): BatchNorm3d(16, eps=1e-05, momentum=0.1, affine=True, track_running_stats=True)
        )
        (conv2): Sequential(
          (0): Conv3d(16, 16, kernel_size=(3, 3, 1), stride=(1, 1, 1), padding=(1, 1, 0), bias=False)
          (1): BatchNorm3d(16, eps=1e-05, momentum=0.1, affine=True, track_running_stats=True)
        )
        (relu): ReLU(inplace=True)
      )
      (conv2): sepConv4d(
        (conv1): Sequential(
          (0): Conv3d(16, 16, kernel_size=(1, 3, 3), stride=(1, 1, 1), padding=(0, 1, 1), bias=False)
          (1): BatchNorm3d(16, eps=1e-05, momentum=0.1, affine=True, track_running_stats=True)
        )
        (conv2): Sequential(
          (0): Conv3d(16, 16, kernel_size=(3, 3, 1), stride=(1, 1, 1), padding=(1, 1, 0), bias=False)
          (1): BatchNorm3d(16, eps=1e-05, momentum=0.1, affine=True, track_running_stats=True)
        )
        (relu): ReLU(inplace=True)
      )
      (relu1): ReLU(inplace=True)
      (relu2): ReLU(inplace=True)
    )
  )
  (p5): sepConv4d(
    (conv1): Conv3d(16, 16, kernel_size=(1, 3, 3), stride=(1, 1, 1), padding=(0, 1, 1))
    (conv2): Conv3d(16, 16, kernel_size=(3, 3, 1), stride=(1, 1, 1), padding=(1, 1, 0))
    (relu): ReLU(inplace=True)
  )
  (f4): butterfly4D(
    (proj): Sequential(
      (0): projfeat4d(
        (conv1): Conv3d(128, 16, kernel_size=(1, 1, 1), stride=(1, 1, 1), bias=False)
        (bn): BatchNorm3d(16, eps=1e-05, momentum=0.1, affine=True, track_running_stats=True)
      )
      (1): ReLU(inplace=True)
    )
    (conva1): sepConv4dBlock(
      (downsample): projfeat4d(
        (conv1): Conv3d(16, 16, kernel_size=(1, 1, 1), stride=(2, 2, 1), bias=False)
        (bn): BatchNorm3d(16, eps=1e-05, momentum=0.1, affine=True, track_running_stats=True)
      )
      (conv1): sepConv4d(
        (conv1): Sequential(
          (0): Conv3d(16, 16, kernel_size=(1, 3, 3), stride=(1, 1, 1), padding=(0, 1, 1), bias=False)
          (1): BatchNorm3d(16, eps=1e-05, momentum=0.1, affine=True, track_running_stats=True)
        )
        (conv2): Sequential(
          (0): Conv3d(16, 16, kernel_size=(3, 3, 1), stride=(2, 2, 1), padding=(1, 1, 0), bias=False)
          (1): BatchNorm3d(16, eps=1e-05, momentum=0.1, affine=True, track_running_stats=True)
        )
        (relu): ReLU(inplace=True)
      )
      (conv2): sepConv4d(
        (conv1): Sequential(
          (0): Conv3d(16, 16, kernel_size=(1, 3, 3), stride=(1, 1, 1), padding=(0, 1, 1), bias=False)
          (1): BatchNorm3d(16, eps=1e-05, momentum=0.1, affine=True, track_running_stats=True)
        )
        (conv2): Sequential(
          (0): Conv3d(16, 16, kernel_size=(3, 3, 1), stride=(1, 1, 1), padding=(1, 1, 0), bias=False)
          (1): BatchNorm3d(16, eps=1e-05, momentum=0.1, affine=True, track_running_stats=True)
        )
        (relu): ReLU(inplace=True)
      )
      (relu1): ReLU(inplace=True)
      (relu2): ReLU(inplace=True)
    )
    (conva2): sepConv4dBlock(
      (downsample): projfeat4d(
        (conv1): Conv3d(16, 16, kernel_size=(1, 1, 1), stride=(2, 2, 1), bias=False)
        (bn): BatchNorm3d(16, eps=1e-05, momentum=0.1, affine=True, track_running_stats=True)
      )
      (conv1): sepConv4d(
        (conv1): Sequential(
          (0): Conv3d(16, 16, kernel_size=(1, 3, 3), stride=(1, 1, 1), padding=(0, 1, 1), bias=False)
          (1): BatchNorm3d(16, eps=1e-05, momentum=0.1, affine=True, track_running_stats=True)
        )
        (conv2): Sequential(
          (0): Conv3d(16, 16, kernel_size=(3, 3, 1), stride=(2, 2, 1), padding=(1, 1, 0), bias=False)
          (1): BatchNorm3d(16, eps=1e-05, momentum=0.1, affine=True, track_running_stats=True)
        )
        (relu): ReLU(inplace=True)
      )
      (conv2): sepConv4d(
        (conv1): Sequential(
          (0): Conv3d(16, 16, kernel_size=(1, 3, 3), stride=(1, 1, 1), padding=(0, 1, 1), bias=False)
          (1): BatchNorm3d(16, eps=1e-05, momentum=0.1, affine=True, track_running_stats=True)
        )
        (conv2): Sequential(
          (0): Conv3d(16, 16, kernel_size=(3, 3, 1), stride=(1, 1, 1), padding=(1, 1, 0), bias=False)
          (1): BatchNorm3d(16, eps=1e-05, momentum=0.1, affine=True, track_running_stats=True)
        )
        (relu): ReLU(inplace=True)
      )
      (relu1): ReLU(inplace=True)
      (relu2): ReLU(inplace=True)
    )
    (convb3): sepConv4dBlock(
      (conv1): sepConv4d(
        (conv1): Sequential(
          (0): Conv3d(16, 16, kernel_size=(1, 3, 3), stride=(1, 1, 1), padding=(0, 1, 1), bias=False)
          (1): BatchNorm3d(16, eps=1e-05, momentum=0.1, affine=True, track_running_stats=True)
        )
        (conv2): Sequential(
          (0): Conv3d(16, 16, kernel_size=(3, 3, 1), stride=(1, 1, 1), padding=(1, 1, 0), bias=False)
          (1): BatchNorm3d(16, eps=1e-05, momentum=0.1, affine=True, track_running_stats=True)
        )
        (relu): ReLU(inplace=True)
      )
      (conv2): sepConv4d(
        (conv1): Sequential(
          (0): Conv3d(16, 16, kernel_size=(1, 3, 3), stride=(1, 1, 1), padding=(0, 1, 1), bias=False)
          (1): BatchNorm3d(16, eps=1e-05, momentum=0.1, affine=True, track_running_stats=True)
        )
        (conv2): Sequential(
          (0): Conv3d(16, 16, kernel_size=(3, 3, 1), stride=(1, 1, 1), padding=(1, 1, 0), bias=False)
          (1): BatchNorm3d(16, eps=1e-05, momentum=0.1, affine=True, track_running_stats=True)
        )
        (relu): ReLU(inplace=True)
      )
      (relu1): ReLU(inplace=True)
      (relu2): ReLU(inplace=True)
    )
    (convb2): sepConv4dBlock(
      (conv1): sepConv4d(
        (conv1): Sequential(
          (0): Conv3d(16, 16, kernel_size=(1, 3, 3), stride=(1, 1, 1), padding=(0, 1, 1), bias=False)
          (1): BatchNorm3d(16, eps=1e-05, momentum=0.1, affine=True, track_running_stats=True)
        )
        (conv2): Sequential(
          (0): Conv3d(16, 16, kernel_size=(3, 3, 1), stride=(1, 1, 1), padding=(1, 1, 0), bias=False)
          (1): BatchNorm3d(16, eps=1e-05, momentum=0.1, affine=True, track_running_stats=True)
        )
        (relu): ReLU(inplace=True)
      )
      (conv2): sepConv4d(
        (conv1): Sequential(
          (0): Conv3d(16, 16, kernel_size=(1, 3, 3), stride=(1, 1, 1), padding=(0, 1, 1), bias=False)
          (1): BatchNorm3d(16, eps=1e-05, momentum=0.1, affine=True, track_running_stats=True)
        )
        (conv2): Sequential(
          (0): Conv3d(16, 16, kernel_size=(3, 3, 1), stride=(1, 1, 1), padding=(1, 1, 0), bias=False)
          (1): BatchNorm3d(16, eps=1e-05, momentum=0.1, affine=True, track_running_stats=True)
        )
        (relu): ReLU(inplace=True)
      )
      (relu1): ReLU(inplace=True)
      (relu2): ReLU(inplace=True)
    )
    (convb1): sepConv4dBlock(
      (conv1): sepConv4d(
        (conv1): Sequential(
          (0): Conv3d(16, 16, kernel_size=(1, 3, 3), stride=(1, 1, 1), padding=(0, 1, 1), bias=False)
          (1): BatchNorm3d(16, eps=1e-05, momentum=0.1, affine=True, track_running_stats=True)
        )
        (conv2): Sequential(
          (0): Conv3d(16, 16, kernel_size=(3, 3, 1), stride=(1, 1, 1), padding=(1, 1, 0), bias=False)
          (1): BatchNorm3d(16, eps=1e-05, momentum=0.1, affine=True, track_running_stats=True)
        )
        (relu): ReLU(inplace=True)
      )
      (conv2): sepConv4d(
        (conv1): Sequential(
          (0): Conv3d(16, 16, kernel_size=(1, 3, 3), stride=(1, 1, 1), padding=(0, 1, 1), bias=False)
          (1): BatchNorm3d(16, eps=1e-05, momentum=0.1, affine=True, track_running_stats=True)
        )
        (conv2): Sequential(
          (0): Conv3d(16, 16, kernel_size=(3, 3, 1), stride=(1, 1, 1), padding=(1, 1, 0), bias=False)
          (1): BatchNorm3d(16, eps=1e-05, momentum=0.1, affine=True, track_running_stats=True)
        )
        (relu): ReLU(inplace=True)
      )
      (relu1): ReLU(inplace=True)
      (relu2): ReLU(inplace=True)
    )
  )
  (p4): sepConv4d(
    (conv1): Conv3d(16, 16, kernel_size=(1, 3, 3), stride=(1, 1, 1), padding=(0, 1, 1))
    (conv2): Conv3d(16, 16, kernel_size=(3, 3, 1), stride=(1, 1, 1), padding=(1, 1, 0))
    (relu): ReLU(inplace=True)
  )
  (f3): butterfly4D(
    (proj): Sequential(
      (0): projfeat4d(
        (conv1): Conv3d(64, 16, kernel_size=(1, 1, 1), stride=(1, 1, 1), bias=False)
        (bn): BatchNorm3d(16, eps=1e-05, momentum=0.1, affine=True, track_running_stats=True)
      )
      (1): ReLU(inplace=True)
    )
    (conva1): sepConv4dBlock(
      (downsample): projfeat4d(
        (conv1): Conv3d(16, 16, kernel_size=(1, 1, 1), stride=(2, 2, 1), bias=False)
        (bn): BatchNorm3d(16, eps=1e-05, momentum=0.1, affine=True, track_running_stats=True)
      )
      (conv1): sepConv4d(
        (conv1): Sequential(
          (0): Conv3d(16, 16, kernel_size=(1, 3, 3), stride=(1, 1, 1), padding=(0, 1, 1), bias=False)
          (1): BatchNorm3d(16, eps=1e-05, momentum=0.1, affine=True, track_running_stats=True)
        )
        (conv2): Sequential(
          (0): Conv3d(16, 16, kernel_size=(3, 3, 1), stride=(2, 2, 1), padding=(1, 1, 0), bias=False)
          (1): BatchNorm3d(16, eps=1e-05, momentum=0.1, affine=True, track_running_stats=True)
        )
        (relu): ReLU(inplace=True)
      )
      (conv2): sepConv4d(
        (conv1): Sequential(
          (0): Conv3d(16, 16, kernel_size=(1, 3, 3), stride=(1, 1, 1), padding=(0, 1, 1), bias=False)
          (1): BatchNorm3d(16, eps=1e-05, momentum=0.1, affine=True, track_running_stats=True)
        )
        (conv2): Sequential(
          (0): Conv3d(16, 16, kernel_size=(3, 3, 1), stride=(1, 1, 1), padding=(1, 1, 0), bias=False)
          (1): BatchNorm3d(16, eps=1e-05, momentum=0.1, affine=True, track_running_stats=True)
        )
        (relu): ReLU(inplace=True)
      )
      (relu1): ReLU(inplace=True)
      (relu2): ReLU(inplace=True)
    )
    (conva2): sepConv4dBlock(
      (downsample): projfeat4d(
        (conv1): Conv3d(16, 16, kernel_size=(1, 1, 1), stride=(2, 2, 1), bias=False)
        (bn): BatchNorm3d(16, eps=1e-05, momentum=0.1, affine=True, track_running_stats=True)
      )
      (conv1): sepConv4d(
        (conv1): Sequential(
          (0): Conv3d(16, 16, kernel_size=(1, 3, 3), stride=(1, 1, 1), padding=(0, 1, 1), bias=False)
          (1): BatchNorm3d(16, eps=1e-05, momentum=0.1, affine=True, track_running_stats=True)
        )
        (conv2): Sequential(
          (0): Conv3d(16, 16, kernel_size=(3, 3, 1), stride=(2, 2, 1), padding=(1, 1, 0), bias=False)
          (1): BatchNorm3d(16, eps=1e-05, momentum=0.1, affine=True, track_running_stats=True)
        )
        (relu): ReLU(inplace=True)
      )
      (conv2): sepConv4d(
        (conv1): Sequential(
          (0): Conv3d(16, 16, kernel_size=(1, 3, 3), stride=(1, 1, 1), padding=(0, 1, 1), bias=False)
          (1): BatchNorm3d(16, eps=1e-05, momentum=0.1, affine=True, track_running_stats=True)
        )
        (conv2): Sequential(
          (0): Conv3d(16, 16, kernel_size=(3, 3, 1), stride=(1, 1, 1), padding=(1, 1, 0), bias=False)
          (1): BatchNorm3d(16, eps=1e-05, momentum=0.1, affine=True, track_running_stats=True)
        )
        (relu): ReLU(inplace=True)
      )
      (relu1): ReLU(inplace=True)
      (relu2): ReLU(inplace=True)
    )
    (convb3): sepConv4dBlock(
      (conv1): sepConv4d(
        (conv1): Sequential(
          (0): Conv3d(16, 16, kernel_size=(1, 3, 3), stride=(1, 1, 1), padding=(0, 1, 1), bias=False)
          (1): BatchNorm3d(16, eps=1e-05, momentum=0.1, affine=True, track_running_stats=True)
        )
        (conv2): Sequential(
          (0): Conv3d(16, 16, kernel_size=(3, 3, 1), stride=(1, 1, 1), padding=(1, 1, 0), bias=False)
          (1): BatchNorm3d(16, eps=1e-05, momentum=0.1, affine=True, track_running_stats=True)
        )
        (relu): ReLU(inplace=True)
      )
      (conv2): sepConv4d(
        (conv1): Sequential(
          (0): Conv3d(16, 16, kernel_size=(1, 3, 3), stride=(1, 1, 1), padding=(0, 1, 1), bias=False)
          (1): BatchNorm3d(16, eps=1e-05, momentum=0.1, affine=True, track_running_stats=True)
        )
        (conv2): Sequential(
          (0): Conv3d(16, 16, kernel_size=(3, 3, 1), stride=(1, 1, 1), padding=(1, 1, 0), bias=False)
          (1): BatchNorm3d(16, eps=1e-05, momentum=0.1, affine=True, track_running_stats=True)
        )
        (relu): ReLU(inplace=True)
      )
      (relu1): ReLU(inplace=True)
      (relu2): ReLU(inplace=True)
    )
    (convb2): sepConv4dBlock(
      (conv1): sepConv4d(
        (conv1): Sequential(
          (0): Conv3d(16, 16, kernel_size=(1, 3, 3), stride=(1, 1, 1), padding=(0, 1, 1), bias=False)
          (1): BatchNorm3d(16, eps=1e-05, momentum=0.1, affine=True, track_running_stats=True)
        )
        (conv2): Sequential(
          (0): Conv3d(16, 16, kernel_size=(3, 3, 1), stride=(1, 1, 1), padding=(1, 1, 0), bias=False)
          (1): BatchNorm3d(16, eps=1e-05, momentum=0.1, affine=True, track_running_stats=True)
        )
        (relu): ReLU(inplace=True)
      )
      (conv2): sepConv4d(
        (conv1): Sequential(
          (0): Conv3d(16, 16, kernel_size=(1, 3, 3), stride=(1, 1, 1), padding=(0, 1, 1), bias=False)
          (1): BatchNorm3d(16, eps=1e-05, momentum=0.1, affine=True, track_running_stats=True)
        )
        (conv2): Sequential(
          (0): Conv3d(16, 16, kernel_size=(3, 3, 1), stride=(1, 1, 1), padding=(1, 1, 0), bias=False)
          (1): BatchNorm3d(16, eps=1e-05, momentum=0.1, affine=True, track_running_stats=True)
        )
        (relu): ReLU(inplace=True)
      )
      (relu1): ReLU(inplace=True)
      (relu2): ReLU(inplace=True)
    )
    (convb1): sepConv4dBlock(
      (conv1): sepConv4d(
        (conv1): Sequential(
          (0): Conv3d(16, 16, kernel_size=(1, 3, 3), stride=(1, 1, 1), padding=(0, 1, 1), bias=False)
          (1): BatchNorm3d(16, eps=1e-05, momentum=0.1, affine=True, track_running_stats=True)
        )
        (conv2): Sequential(
          (0): Conv3d(16, 16, kernel_size=(3, 3, 1), stride=(1, 1, 1), padding=(1, 1, 0), bias=False)
          (1): BatchNorm3d(16, eps=1e-05, momentum=0.1, affine=True, track_running_stats=True)
        )
        (relu): ReLU(inplace=True)
      )
      (conv2): sepConv4d(
        (conv1): Sequential(
          (0): Conv3d(16, 16, kernel_size=(1, 3, 3), stride=(1, 1, 1), padding=(0, 1, 1), bias=False)
          (1): BatchNorm3d(16, eps=1e-05, momentum=0.1, affine=True, track_running_stats=True)
        )
        (conv2): Sequential(
          (0): Conv3d(16, 16, kernel_size=(3, 3, 1), stride=(1, 1, 1), padding=(1, 1, 0), bias=False)
          (1): BatchNorm3d(16, eps=1e-05, momentum=0.1, affine=True, track_running_stats=True)
        )
        (relu): ReLU(inplace=True)
      )
      (relu1): ReLU(inplace=True)
      (relu2): ReLU(inplace=True)
    )
  )
  (p3): sepConv4d(
    (conv1): Conv3d(16, 16, kernel_size=(1, 3, 3), stride=(1, 1, 1), padding=(0, 1, 1))
    (conv2): Conv3d(16, 16, kernel_size=(3, 3, 1), stride=(1, 1, 1), padding=(1, 1, 0))
    (relu): ReLU(inplace=True)
  )
  (f2): butterfly4D(
    (proj): Sequential(
      (0): projfeat4d(
        (conv1): Conv3d(64, 12, kernel_size=(1, 1, 1), stride=(1, 1, 1), bias=False)
        (bn): BatchNorm3d(12, eps=1e-05, momentum=0.1, affine=True, track_running_stats=True)
      )
      (1): ReLU(inplace=True)
    )
    (conva1): sepConv4dBlock(
      (downsample): sepConv4d(
        (conv1): Sequential(
          (0): Conv3d(12, 12, kernel_size=(1, 1, 1), stride=(1, 2, 2), bias=False)
          (1): BatchNorm3d(12, eps=1e-05, momentum=0.1, affine=True, track_running_stats=True)
        )
        (conv2): Sequential(
          (0): Conv3d(12, 12, kernel_size=(1, 1, 1), stride=(2, 2, 1), bias=False)
          (1): BatchNorm3d(12, eps=1e-05, momentum=0.1, affine=True, track_running_stats=True)
        )
        (relu): ReLU(inplace=True)
      )
      (conv1): sepConv4d(
        (conv1): Sequential(
          (0): Conv3d(12, 12, kernel_size=(1, 3, 3), stride=(1, 2, 2), padding=(0, 1, 1), bias=False)
          (1): BatchNorm3d(12, eps=1e-05, momentum=0.1, affine=True, track_running_stats=True)
        )
        (conv2): Sequential(
          (0): Conv3d(12, 12, kernel_size=(3, 3, 1), stride=(2, 2, 1), padding=(1, 1, 0), bias=False)
          (1): BatchNorm3d(12, eps=1e-05, momentum=0.1, affine=True, track_running_stats=True)
        )
        (relu): ReLU(inplace=True)
      )
      (conv2): sepConv4d(
        (conv1): Sequential(
          (0): Conv3d(12, 12, kernel_size=(1, 3, 3), stride=(1, 1, 1), padding=(0, 1, 1), bias=False)
          (1): BatchNorm3d(12, eps=1e-05, momentum=0.1, affine=True, track_running_stats=True)
        )
        (conv2): Sequential(
          (0): Conv3d(12, 12, kernel_size=(3, 3, 1), stride=(1, 1, 1), padding=(1, 1, 0), bias=False)
          (1): BatchNorm3d(12, eps=1e-05, momentum=0.1, affine=True, track_running_stats=True)
        )
        (relu): ReLU(inplace=True)
      )
      (relu1): ReLU(inplace=True)
      (relu2): ReLU(inplace=True)
    )
    (conva2): sepConv4dBlock(
      (downsample): sepConv4d(
        (conv1): Sequential(
          (0): Conv3d(12, 12, kernel_size=(1, 1, 1), stride=(1, 2, 2), bias=False)
          (1): BatchNorm3d(12, eps=1e-05, momentum=0.1, affine=True, track_running_stats=True)
        )
        (conv2): Sequential(
          (0): Conv3d(12, 12, kernel_size=(1, 1, 1), stride=(2, 2, 1), bias=False)
          (1): BatchNorm3d(12, eps=1e-05, momentum=0.1, affine=True, track_running_stats=True)
        )
        (relu): ReLU(inplace=True)
      )
      (conv1): sepConv4d(
        (conv1): Sequential(
          (0): Conv3d(12, 12, kernel_size=(1, 3, 3), stride=(1, 2, 2), padding=(0, 1, 1), bias=False)
          (1): BatchNorm3d(12, eps=1e-05, momentum=0.1, affine=True, track_running_stats=True)
        )
        (conv2): Sequential(
          (0): Conv3d(12, 12, kernel_size=(3, 3, 1), stride=(2, 2, 1), padding=(1, 1, 0), bias=False)
          (1): BatchNorm3d(12, eps=1e-05, momentum=0.1, affine=True, track_running_stats=True)
        )
        (relu): ReLU(inplace=True)
      )
      (conv2): sepConv4d(
        (conv1): Sequential(
          (0): Conv3d(12, 12, kernel_size=(1, 3, 3), stride=(1, 1, 1), padding=(0, 1, 1), bias=False)
          (1): BatchNorm3d(12, eps=1e-05, momentum=0.1, affine=True, track_running_stats=True)
        )
        (conv2): Sequential(
          (0): Conv3d(12, 12, kernel_size=(3, 3, 1), stride=(1, 1, 1), padding=(1, 1, 0), bias=False)
          (1): BatchNorm3d(12, eps=1e-05, momentum=0.1, affine=True, track_running_stats=True)
        )
        (relu): ReLU(inplace=True)
      )
      (relu1): ReLU(inplace=True)
      (relu2): ReLU(inplace=True)
    )
    (convb3): sepConv4dBlock(
      (conv1): sepConv4d(
        (conv1): Sequential(
          (0): Conv3d(12, 12, kernel_size=(1, 3, 3), stride=(1, 1, 1), padding=(0, 1, 1), bias=False)
          (1): BatchNorm3d(12, eps=1e-05, momentum=0.1, affine=True, track_running_stats=True)
        )
        (conv2): Sequential(
          (0): Conv3d(12, 12, kernel_size=(3, 3, 1), stride=(1, 1, 1), padding=(1, 1, 0), bias=False)
          (1): BatchNorm3d(12, eps=1e-05, momentum=0.1, affine=True, track_running_stats=True)
        )
        (relu): ReLU(inplace=True)
      )
      (conv2): sepConv4d(
        (conv1): Sequential(
          (0): Conv3d(12, 12, kernel_size=(1, 3, 3), stride=(1, 1, 1), padding=(0, 1, 1), bias=False)
          (1): BatchNorm3d(12, eps=1e-05, momentum=0.1, affine=True, track_running_stats=True)
        )
        (conv2): Sequential(
          (0): Conv3d(12, 12, kernel_size=(3, 3, 1), stride=(1, 1, 1), padding=(1, 1, 0), bias=False)
          (1): BatchNorm3d(12, eps=1e-05, momentum=0.1, affine=True, track_running_stats=True)
        )
        (relu): ReLU(inplace=True)
      )
      (relu1): ReLU(inplace=True)
      (relu2): ReLU(inplace=True)
    )
    (convb2): sepConv4dBlock(
      (conv1): sepConv4d(
        (conv1): Sequential(
          (0): Conv3d(12, 12, kernel_size=(1, 3, 3), stride=(1, 1, 1), padding=(0, 1, 1), bias=False)
          (1): BatchNorm3d(12, eps=1e-05, momentum=0.1, affine=True, track_running_stats=True)
        )
        (conv2): Sequential(
          (0): Conv3d(12, 12, kernel_size=(3, 3, 1), stride=(1, 1, 1), padding=(1, 1, 0), bias=False)
          (1): BatchNorm3d(12, eps=1e-05, momentum=0.1, affine=True, track_running_stats=True)
        )
        (relu): ReLU(inplace=True)
      )
      (conv2): sepConv4d(
        (conv1): Sequential(
          (0): Conv3d(12, 12, kernel_size=(1, 3, 3), stride=(1, 1, 1), padding=(0, 1, 1), bias=False)
          (1): BatchNorm3d(12, eps=1e-05, momentum=0.1, affine=True, track_running_stats=True)
        )
        (conv2): Sequential(
          (0): Conv3d(12, 12, kernel_size=(3, 3, 1), stride=(1, 1, 1), padding=(1, 1, 0), bias=False)
          (1): BatchNorm3d(12, eps=1e-05, momentum=0.1, affine=True, track_running_stats=True)
        )
        (relu): ReLU(inplace=True)
      )
      (relu1): ReLU(inplace=True)
      (relu2): ReLU(inplace=True)
    )
    (convb1): sepConv4dBlock(
      (conv1): sepConv4d(
        (conv1): Sequential(
          (0): Conv3d(12, 12, kernel_size=(1, 3, 3), stride=(1, 1, 1), padding=(0, 1, 1), bias=False)
          (1): BatchNorm3d(12, eps=1e-05, momentum=0.1, affine=True, track_running_stats=True)
        )
        (conv2): Sequential(
          (0): Conv3d(12, 12, kernel_size=(3, 3, 1), stride=(1, 1, 1), padding=(1, 1, 0), bias=False)
          (1): BatchNorm3d(12, eps=1e-05, momentum=0.1, affine=True, track_running_stats=True)
        )
        (relu): ReLU(inplace=True)
      )
      (conv2): sepConv4d(
        (conv1): Sequential(
          (0): Conv3d(12, 12, kernel_size=(1, 3, 3), stride=(1, 1, 1), padding=(0, 1, 1), bias=False)
          (1): BatchNorm3d(12, eps=1e-05, momentum=0.1, affine=True, track_running_stats=True)
        )
        (conv2): Sequential(
          (0): Conv3d(12, 12, kernel_size=(3, 3, 1), stride=(1, 1, 1), padding=(1, 1, 0), bias=False)
          (1): BatchNorm3d(12, eps=1e-05, momentum=0.1, affine=True, track_running_stats=True)
        )
        (relu): ReLU(inplace=True)
      )
      (relu1): ReLU(inplace=True)
      (relu2): ReLU(inplace=True)
    )
  )
  (p2): sepConv4d(
    (conv1): Conv3d(12, 12, kernel_size=(1, 3, 3), stride=(1, 1, 1), padding=(0, 1, 1))
    (conv2): Conv3d(12, 12, kernel_size=(3, 3, 1), stride=(1, 1, 1), padding=(1, 1, 0))
    (relu): ReLU(inplace=True)
  )
  (flow_reg64): flow_reg(
    (pool3d): MaxPool3d(kernel_size=(7, 7, 1), stride=1, padding=(3, 3, 0), dilation=1, ceil_mode=False)
  )
  (flow_reg32): flow_reg(
    (pool3d): MaxPool3d(kernel_size=(7, 7, 1), stride=1, padding=(3, 3, 0), dilation=1, ceil_mode=False)
  )
  (flow_reg16): flow_reg(
    (pool3d): MaxPool3d(kernel_size=(7, 7, 1), stride=1, padding=(3, 3, 0), dilation=1, ceil_mode=False)
  )
  (flow_reg8): flow_reg(
    (pool3d): MaxPool3d(kernel_size=(7, 7, 1), stride=1, padding=(3, 3, 0), dilation=1, ceil_mode=False)
  )
  (flow_reg4): flow_reg(
    (pool3d): MaxPool3d(kernel_size=(7, 7, 1), stride=1, padding=(3, 3, 0), dilation=1, ceil_mode=False)
  )
  (warp5): WarpModule()
  (warp4): WarpModule()
  (warp3): WarpModule()
  (warp2): WarpModule()
  (dc6_conv1): Sequential(
    (0): Conv2d(192, 128, kernel_size=(3, 3), stride=(1, 1), padding=(1, 1))
    (1): BatchNorm2d(128, eps=1e-05, momentum=0.1, affine=True, track_running_stats=True)
    (2): LeakyReLU(negative_slope=0.1, inplace=True)
  )
  (dc6_conv2): Sequential(
    (0): Conv2d(128, 128, kernel_size=(3, 3), stride=(1, 1), padding=(2, 2), dilation=(2, 2))
    (1): BatchNorm2d(128, eps=1e-05, momentum=0.1, affine=True, track_running_stats=True)
    (2): LeakyReLU(negative_slope=0.1, inplace=True)
  )
  (dc6_conv3): Sequential(
    (0): Conv2d(128, 128, kernel_size=(3, 3), stride=(1, 1), padding=(4, 4), dilation=(4, 4))
    (1): BatchNorm2d(128, eps=1e-05, momentum=0.1, affine=True, track_running_stats=True)
    (2): LeakyReLU(negative_slope=0.1, inplace=True)
  )
  (dc6_conv4): Sequential(
    (0): Conv2d(128, 96, kernel_size=(3, 3), stride=(1, 1), padding=(8, 8), dilation=(8, 8))
    (1): BatchNorm2d(96, eps=1e-05, momentum=0.1, affine=True, track_running_stats=True)
    (2): LeakyReLU(negative_slope=0.1, inplace=True)
  )
  (dc6_conv5): Sequential(
    (0): Conv2d(96, 64, kernel_size=(3, 3), stride=(1, 1), padding=(16, 16), dilation=(16, 16))
    (1): BatchNorm2d(64, eps=1e-05, momentum=0.1, affine=True, track_running_stats=True)
    (2): LeakyReLU(negative_slope=0.1, inplace=True)
  )
  (dc6_conv6): Sequential(
    (0): Conv2d(64, 32, kernel_size=(3, 3), stride=(1, 1), padding=(1, 1))
    (1): BatchNorm2d(32, eps=1e-05, momentum=0.1, affine=True, track_running_stats=True)
    (2): LeakyReLU(negative_slope=0.1, inplace=True)
  )
  (dc6_conv7): Conv2d(32, 32, kernel_size=(3, 3), stride=(1, 1), padding=(1, 1))
  (dc5_conv1): Sequential(
    (0): Conv2d(256, 128, kernel_size=(3, 3), stride=(1, 1), padding=(1, 1))
    (1): BatchNorm2d(128, eps=1e-05, momentum=0.1, affine=True, track_running_stats=True)
    (2): LeakyReLU(negative_slope=0.1, inplace=True)
  )
  (dc5_conv2): Sequential(
    (0): Conv2d(128, 128, kernel_size=(3, 3), stride=(1, 1), padding=(2, 2), dilation=(2, 2))
    (1): BatchNorm2d(128, eps=1e-05, momentum=0.1, affine=True, track_running_stats=True)
    (2): LeakyReLU(negative_slope=0.1, inplace=True)
  )
  (dc5_conv3): Sequential(
    (0): Conv2d(128, 128, kernel_size=(3, 3), stride=(1, 1), padding=(4, 4), dilation=(4, 4))
    (1): BatchNorm2d(128, eps=1e-05, momentum=0.1, affine=True, track_running_stats=True)
    (2): LeakyReLU(negative_slope=0.1, inplace=True)
  )
  (dc5_conv4): Sequential(
    (0): Conv2d(128, 96, kernel_size=(3, 3), stride=(1, 1), padding=(8, 8), dilation=(8, 8))
    (1): BatchNorm2d(96, eps=1e-05, momentum=0.1, affine=True, track_running_stats=True)
    (2): LeakyReLU(negative_slope=0.1, inplace=True)
  )
  (dc5_conv5): Sequential(
    (0): Conv2d(96, 64, kernel_size=(3, 3), stride=(1, 1), padding=(16, 16), dilation=(16, 16))
    (1): BatchNorm2d(64, eps=1e-05, momentum=0.1, affine=True, track_running_stats=True)
    (2): LeakyReLU(negative_slope=0.1, inplace=True)
  )
  (dc5_conv6): Sequential(
    (0): Conv2d(64, 32, kernel_size=(3, 3), stride=(1, 1), padding=(1, 1))
    (1): BatchNorm2d(32, eps=1e-05, momentum=0.1, affine=True, track_running_stats=True)
    (2): LeakyReLU(negative_slope=0.1, inplace=True)
  )
  (dc5_conv7): Conv2d(32, 64, kernel_size=(3, 3), stride=(1, 1), padding=(1, 1))
  (dc4_conv1): Sequential(
    (0): Conv2d(320, 128, kernel_size=(3, 3), stride=(1, 1), padding=(1, 1))
    (1): BatchNorm2d(128, eps=1e-05, momentum=0.1, affine=True, track_running_stats=True)
    (2): LeakyReLU(negative_slope=0.1, inplace=True)
  )
  (dc4_conv2): Sequential(
    (0): Conv2d(128, 128, kernel_size=(3, 3), stride=(1, 1), padding=(2, 2), dilation=(2, 2))
    (1): BatchNorm2d(128, eps=1e-05, momentum=0.1, affine=True, track_running_stats=True)
    (2): LeakyReLU(negative_slope=0.1, inplace=True)
  )
  (dc4_conv3): Sequential(
    (0): Conv2d(128, 128, kernel_size=(3, 3), stride=(1, 1), padding=(4, 4), dilation=(4, 4))
    (1): BatchNorm2d(128, eps=1e-05, momentum=0.1, affine=True, track_running_stats=True)
    (2): LeakyReLU(negative_slope=0.1, inplace=True)
  )
  (dc4_conv4): Sequential(
    (0): Conv2d(128, 96, kernel_size=(3, 3), stride=(1, 1), padding=(8, 8), dilation=(8, 8))
    (1): BatchNorm2d(96, eps=1e-05, momentum=0.1, affine=True, track_running_stats=True)
    (2): LeakyReLU(negative_slope=0.1, inplace=True)
  )
  (dc4_conv5): Sequential(
    (0): Conv2d(96, 64, kernel_size=(3, 3), stride=(1, 1), padding=(16, 16), dilation=(16, 16))
    (1): BatchNorm2d(64, eps=1e-05, momentum=0.1, affine=True, track_running_stats=True)
    (2): LeakyReLU(negative_slope=0.1, inplace=True)
  )
  (dc4_conv6): Sequential(
    (0): Conv2d(64, 32, kernel_size=(3, 3), stride=(1, 1), padding=(1, 1))
    (1): BatchNorm2d(32, eps=1e-05, momentum=0.1, affine=True, track_running_stats=True)
    (2): LeakyReLU(negative_slope=0.1, inplace=True)
  )
  (dc4_conv7): Conv2d(32, 96, kernel_size=(3, 3), stride=(1, 1), padding=(1, 1))
  (dc3_conv1): Sequential(
    (0): Conv2d(320, 128, kernel_size=(3, 3), stride=(1, 1), padding=(1, 1))
    (1): BatchNorm2d(128, eps=1e-05, momentum=0.1, affine=True, track_running_stats=True)
    (2): LeakyReLU(negative_slope=0.1, inplace=True)
  )
  (dc3_conv2): Sequential(
    (0): Conv2d(128, 128, kernel_size=(3, 3), stride=(1, 1), padding=(2, 2), dilation=(2, 2))
    (1): BatchNorm2d(128, eps=1e-05, momentum=0.1, affine=True, track_running_stats=True)
    (2): LeakyReLU(negative_slope=0.1, inplace=True)
  )
  (dc3_conv3): Sequential(
    (0): Conv2d(128, 128, kernel_size=(3, 3), stride=(1, 1), padding=(4, 4), dilation=(4, 4))
    (1): BatchNorm2d(128, eps=1e-05, momentum=0.1, affine=True, track_running_stats=True)
    (2): LeakyReLU(negative_slope=0.1, inplace=True)
  )
  (dc3_conv4): Sequential(
    (0): Conv2d(128, 96, kernel_size=(3, 3), stride=(1, 1), padding=(8, 8), dilation=(8, 8))
    (1): BatchNorm2d(96, eps=1e-05, momentum=0.1, affine=True, track_running_stats=True)
    (2): LeakyReLU(negative_slope=0.1, inplace=True)
  )
  (dc3_conv5): Sequential(
    (0): Conv2d(96, 64, kernel_size=(3, 3), stride=(1, 1), padding=(16, 16), dilation=(16, 16))
    (1): BatchNorm2d(64, eps=1e-05, momentum=0.1, affine=True, track_running_stats=True)
    (2): LeakyReLU(negative_slope=0.1, inplace=True)
  )
  (dc3_conv6): Sequential(
    (0): Conv2d(64, 32, kernel_size=(3, 3), stride=(1, 1), padding=(1, 1))
    (1): BatchNorm2d(32, eps=1e-05, momentum=0.1, affine=True, track_running_stats=True)
    (2): LeakyReLU(negative_slope=0.1, inplace=True)
  )
  (dc3_conv7): Conv2d(32, 128, kernel_size=(3, 3), stride=(1, 1), padding=(1, 1))
  (dc2_conv1): Sequential(
    (0): Conv2d(368, 128, kernel_size=(3, 3), stride=(1, 1), padding=(1, 1))
    (1): BatchNorm2d(128, eps=1e-05, momentum=0.1, affine=True, track_running_stats=True)
    (2): LeakyReLU(negative_slope=0.1, inplace=True)
  )
  (dc2_conv2): Sequential(
    (0): Conv2d(128, 128, kernel_size=(3, 3), stride=(1, 1), padding=(2, 2), dilation=(2, 2))
    (1): BatchNorm2d(128, eps=1e-05, momentum=0.1, affine=True, track_running_stats=True)
    (2): LeakyReLU(negative_slope=0.1, inplace=True)
  )
  (dc2_conv3): Sequential(
    (0): Conv2d(128, 128, kernel_size=(3, 3), stride=(1, 1), padding=(4, 4), dilation=(4, 4))
    (1): BatchNorm2d(128, eps=1e-05, momentum=0.1, affine=True, track_running_stats=True)
    (2): LeakyReLU(negative_slope=0.1, inplace=True)
  )
  (dc2_conv4): Sequential(
    (0): Conv2d(128, 96, kernel_size=(3, 3), stride=(1, 1), padding=(8, 8), dilation=(8, 8))
    (1): BatchNorm2d(96, eps=1e-05, momentum=0.1, affine=True, track_running_stats=True)
    (2): LeakyReLU(negative_slope=0.1, inplace=True)
  )
  (dc2_conv5): Sequential(
    (0): Conv2d(96, 64, kernel_size=(3, 3), stride=(1, 1), padding=(16, 16), dilation=(16, 16))
    (1): BatchNorm2d(64, eps=1e-05, momentum=0.1, affine=True, track_running_stats=True)
    (2): LeakyReLU(negative_slope=0.1, inplace=True)
  )
  (dc2_conv6): Sequential(
    (0): Conv2d(64, 32, kernel_size=(3, 3), stride=(1, 1), padding=(1, 1))
    (1): BatchNorm2d(32, eps=1e-05, momentum=0.1, affine=True, track_running_stats=True)
    (2): LeakyReLU(negative_slope=0.1, inplace=True)
  )
  (dc2_conv7): Conv2d(32, 152, kernel_size=(3, 3), stride=(1, 1), padding=(1, 1))
  (dc6_conv): Sequential(
    (0): Sequential(
      (0): Conv2d(192, 128, kernel_size=(3, 3), stride=(1, 1), padding=(1, 1))
      (1): BatchNorm2d(128, eps=1e-05, momentum=0.1, affine=True, track_running_stats=True)
      (2): LeakyReLU(negative_slope=0.1, inplace=True)
    )
    (1): Sequential(
      (0): Conv2d(128, 128, kernel_size=(3, 3), stride=(1, 1), padding=(2, 2), dilation=(2, 2))
      (1): BatchNorm2d(128, eps=1e-05, momentum=0.1, affine=True, track_running_stats=True)
      (2): LeakyReLU(negative_slope=0.1, inplace=True)
    )
    (2): Sequential(
      (0): Conv2d(128, 128, kernel_size=(3, 3), stride=(1, 1), padding=(4, 4), dilation=(4, 4))
      (1): BatchNorm2d(128, eps=1e-05, momentum=0.1, affine=True, track_running_stats=True)
      (2): LeakyReLU(negative_slope=0.1, inplace=True)
    )
    (3): Sequential(
      (0): Conv2d(128, 96, kernel_size=(3, 3), stride=(1, 1), padding=(8, 8), dilation=(8, 8))
      (1): BatchNorm2d(96, eps=1e-05, momentum=0.1, affine=True, track_running_stats=True)
      (2): LeakyReLU(negative_slope=0.1, inplace=True)
    )
    (4): Sequential(
      (0): Conv2d(96, 64, kernel_size=(3, 3), stride=(1, 1), padding=(16, 16), dilation=(16, 16))
      (1): BatchNorm2d(64, eps=1e-05, momentum=0.1, affine=True, track_running_stats=True)
      (2): LeakyReLU(negative_slope=0.1, inplace=True)
    )
    (5): Sequential(
      (0): Conv2d(64, 32, kernel_size=(3, 3), stride=(1, 1), padding=(1, 1))
      (1): BatchNorm2d(32, eps=1e-05, momentum=0.1, affine=True, track_running_stats=True)
      (2): LeakyReLU(negative_slope=0.1, inplace=True)
    )
    (6): Conv2d(32, 32, kernel_size=(3, 3), stride=(1, 1), padding=(1, 1))
  )
  (dc5_conv): Sequential(
    (0): Sequential(
      (0): Conv2d(256, 128, kernel_size=(3, 3), stride=(1, 1), padding=(1, 1))
      (1): BatchNorm2d(128, eps=1e-05, momentum=0.1, affine=True, track_running_stats=True)
      (2): LeakyReLU(negative_slope=0.1, inplace=True)
    )
    (1): Sequential(
      (0): Conv2d(128, 128, kernel_size=(3, 3), stride=(1, 1), padding=(2, 2), dilation=(2, 2))
      (1): BatchNorm2d(128, eps=1e-05, momentum=0.1, affine=True, track_running_stats=True)
      (2): LeakyReLU(negative_slope=0.1, inplace=True)
    )
    (2): Sequential(
      (0): Conv2d(128, 128, kernel_size=(3, 3), stride=(1, 1), padding=(4, 4), dilation=(4, 4))
      (1): BatchNorm2d(128, eps=1e-05, momentum=0.1, affine=True, track_running_stats=True)
      (2): LeakyReLU(negative_slope=0.1, inplace=True)
    )
    (3): Sequential(
      (0): Conv2d(128, 96, kernel_size=(3, 3), stride=(1, 1), padding=(8, 8), dilation=(8, 8))
      (1): BatchNorm2d(96, eps=1e-05, momentum=0.1, affine=True, track_running_stats=True)
      (2): LeakyReLU(negative_slope=0.1, inplace=True)
    )
    (4): Sequential(
      (0): Conv2d(96, 64, kernel_size=(3, 3), stride=(1, 1), padding=(16, 16), dilation=(16, 16))
      (1): BatchNorm2d(64, eps=1e-05, momentum=0.1, affine=True, track_running_stats=True)
      (2): LeakyReLU(negative_slope=0.1, inplace=True)
    )
    (5): Sequential(
      (0): Conv2d(64, 32, kernel_size=(3, 3), stride=(1, 1), padding=(1, 1))
      (1): BatchNorm2d(32, eps=1e-05, momentum=0.1, affine=True, track_running_stats=True)
      (2): LeakyReLU(negative_slope=0.1, inplace=True)
    )
    (6): Conv2d(32, 64, kernel_size=(3, 3), stride=(1, 1), padding=(1, 1))
  )
  (dc4_conv): Sequential(
    (0): Sequential(
      (0): Conv2d(320, 128, kernel_size=(3, 3), stride=(1, 1), padding=(1, 1))
      (1): BatchNorm2d(128, eps=1e-05, momentum=0.1, affine=True, track_running_stats=True)
      (2): LeakyReLU(negative_slope=0.1, inplace=True)
    )
    (1): Sequential(
      (0): Conv2d(128, 128, kernel_size=(3, 3), stride=(1, 1), padding=(2, 2), dilation=(2, 2))
      (1): BatchNorm2d(128, eps=1e-05, momentum=0.1, affine=True, track_running_stats=True)
      (2): LeakyReLU(negative_slope=0.1, inplace=True)
    )
    (2): Sequential(
      (0): Conv2d(128, 128, kernel_size=(3, 3), stride=(1, 1), padding=(4, 4), dilation=(4, 4))
      (1): BatchNorm2d(128, eps=1e-05, momentum=0.1, affine=True, track_running_stats=True)
      (2): LeakyReLU(negative_slope=0.1, inplace=True)
    )
    (3): Sequential(
      (0): Conv2d(128, 96, kernel_size=(3, 3), stride=(1, 1), padding=(8, 8), dilation=(8, 8))
      (1): BatchNorm2d(96, eps=1e-05, momentum=0.1, affine=True, track_running_stats=True)
      (2): LeakyReLU(negative_slope=0.1, inplace=True)
    )
    (4): Sequential(
      (0): Conv2d(96, 64, kernel_size=(3, 3), stride=(1, 1), padding=(16, 16), dilation=(16, 16))
      (1): BatchNorm2d(64, eps=1e-05, momentum=0.1, affine=True, track_running_stats=True)
      (2): LeakyReLU(negative_slope=0.1, inplace=True)
    )
    (5): Sequential(
      (0): Conv2d(64, 32, kernel_size=(3, 3), stride=(1, 1), padding=(1, 1))
      (1): BatchNorm2d(32, eps=1e-05, momentum=0.1, affine=True, track_running_stats=True)
      (2): LeakyReLU(negative_slope=0.1, inplace=True)
    )
    (6): Conv2d(32, 96, kernel_size=(3, 3), stride=(1, 1), padding=(1, 1))
  )
  (dc3_conv): Sequential(
    (0): Sequential(
      (0): Conv2d(320, 128, kernel_size=(3, 3), stride=(1, 1), padding=(1, 1))
      (1): BatchNorm2d(128, eps=1e-05, momentum=0.1, affine=True, track_running_stats=True)
      (2): LeakyReLU(negative_slope=0.1, inplace=True)
    )
    (1): Sequential(
      (0): Conv2d(128, 128, kernel_size=(3, 3), stride=(1, 1), padding=(2, 2), dilation=(2, 2))
      (1): BatchNorm2d(128, eps=1e-05, momentum=0.1, affine=True, track_running_stats=True)
      (2): LeakyReLU(negative_slope=0.1, inplace=True)
    )
    (2): Sequential(
      (0): Conv2d(128, 128, kernel_size=(3, 3), stride=(1, 1), padding=(4, 4), dilation=(4, 4))
      (1): BatchNorm2d(128, eps=1e-05, momentum=0.1, affine=True, track_running_stats=True)
      (2): LeakyReLU(negative_slope=0.1, inplace=True)
    )
    (3): Sequential(
      (0): Conv2d(128, 96, kernel_size=(3, 3), stride=(1, 1), padding=(8, 8), dilation=(8, 8))
      (1): BatchNorm2d(96, eps=1e-05, momentum=0.1, affine=True, track_running_stats=True)
      (2): LeakyReLU(negative_slope=0.1, inplace=True)
    )
    (4): Sequential(
      (0): Conv2d(96, 64, kernel_size=(3, 3), stride=(1, 1), padding=(16, 16), dilation=(16, 16))
      (1): BatchNorm2d(64, eps=1e-05, momentum=0.1, affine=True, track_running_stats=True)
      (2): LeakyReLU(negative_slope=0.1, inplace=True)
    )
    (5): Sequential(
      (0): Conv2d(64, 32, kernel_size=(3, 3), stride=(1, 1), padding=(1, 1))
      (1): BatchNorm2d(32, eps=1e-05, momentum=0.1, affine=True, track_running_stats=True)
      (2): LeakyReLU(negative_slope=0.1, inplace=True)
    )
    (6): Conv2d(32, 128, kernel_size=(3, 3), stride=(1, 1), padding=(1, 1))
  )
  (dc2_conv): Sequential(
    (0): Sequential(
      (0): Conv2d(368, 128, kernel_size=(3, 3), stride=(1, 1), padding=(1, 1))
      (1): BatchNorm2d(128, eps=1e-05, momentum=0.1, affine=True, track_running_stats=True)
      (2): LeakyReLU(negative_slope=0.1, inplace=True)
    )
    (1): Sequential(
      (0): Conv2d(128, 128, kernel_size=(3, 3), stride=(1, 1), padding=(2, 2), dilation=(2, 2))
      (1): BatchNorm2d(128, eps=1e-05, momentum=0.1, affine=True, track_running_stats=True)
      (2): LeakyReLU(negative_slope=0.1, inplace=True)
    )
    (2): Sequential(
      (0): Conv2d(128, 128, kernel_size=(3, 3), stride=(1, 1), padding=(4, 4), dilation=(4, 4))
      (1): BatchNorm2d(128, eps=1e-05, momentum=0.1, affine=True, track_running_stats=True)
      (2): LeakyReLU(negative_slope=0.1, inplace=True)
    )
    (3): Sequential(
      (0): Conv2d(128, 96, kernel_size=(3, 3), stride=(1, 1), padding=(8, 8), dilation=(8, 8))
      (1): BatchNorm2d(96, eps=1e-05, momentum=0.1, affine=True, track_running_stats=True)
      (2): LeakyReLU(negative_slope=0.1, inplace=True)
    )
    (4): Sequential(
      (0): Conv2d(96, 64, kernel_size=(3, 3), stride=(1, 1), padding=(16, 16), dilation=(16, 16))
      (1): BatchNorm2d(64, eps=1e-05, momentum=0.1, affine=True, track_running_stats=True)
      (2): LeakyReLU(negative_slope=0.1, inplace=True)
    )
    (5): Sequential(
      (0): Conv2d(64, 32, kernel_size=(3, 3), stride=(1, 1), padding=(1, 1))
      (1): BatchNorm2d(32, eps=1e-05, momentum=0.1, affine=True, track_running_stats=True)
      (2): LeakyReLU(negative_slope=0.1, inplace=True)
    )
    (6): Conv2d(32, 152, kernel_size=(3, 3), stride=(1, 1), padding=(1, 1))
  )
  (dc6_convo): Sequential(
    (0): Sequential(
      (0): Conv2d(192, 128, kernel_size=(3, 3), stride=(1, 1), padding=(1, 1))
      (1): BatchNorm2d(128, eps=1e-05, momentum=0.1, affine=True, track_running_stats=True)
      (2): LeakyReLU(negative_slope=0.1, inplace=True)
    )
    (1): Sequential(
      (0): Conv2d(128, 128, kernel_size=(3, 3), stride=(1, 1), padding=(2, 2), dilation=(2, 2))
      (1): BatchNorm2d(128, eps=1e-05, momentum=0.1, affine=True, track_running_stats=True)
      (2): LeakyReLU(negative_slope=0.1, inplace=True)
    )
    (2): Sequential(
      (0): Conv2d(128, 128, kernel_size=(3, 3), stride=(1, 1), padding=(4, 4), dilation=(4, 4))
      (1): BatchNorm2d(128, eps=1e-05, momentum=0.1, affine=True, track_running_stats=True)
      (2): LeakyReLU(negative_slope=0.1, inplace=True)
    )
    (3): Sequential(
      (0): Conv2d(128, 96, kernel_size=(3, 3), stride=(1, 1), padding=(8, 8), dilation=(8, 8))
      (1): BatchNorm2d(96, eps=1e-05, momentum=0.1, affine=True, track_running_stats=True)
      (2): LeakyReLU(negative_slope=0.1, inplace=True)
    )
    (4): Sequential(
      (0): Conv2d(96, 64, kernel_size=(3, 3), stride=(1, 1), padding=(16, 16), dilation=(16, 16))
      (1): BatchNorm2d(64, eps=1e-05, momentum=0.1, affine=True, track_running_stats=True)
      (2): LeakyReLU(negative_slope=0.1, inplace=True)
    )
    (5): Sequential(
      (0): Conv2d(64, 32, kernel_size=(3, 3), stride=(1, 1), padding=(1, 1))
      (1): BatchNorm2d(32, eps=1e-05, momentum=0.1, affine=True, track_running_stats=True)
      (2): LeakyReLU(negative_slope=0.1, inplace=True)
    )
    (6): Conv2d(32, 1, kernel_size=(3, 3), stride=(1, 1), padding=(1, 1))
  )
  (dc5_convo): Sequential(
    (0): Sequential(
      (0): Conv2d(256, 128, kernel_size=(3, 3), stride=(1, 1), padding=(1, 1))
      (1): BatchNorm2d(128, eps=1e-05, momentum=0.1, affine=True, track_running_stats=True)
      (2): LeakyReLU(negative_slope=0.1, inplace=True)
    )
    (1): Sequential(
      (0): Conv2d(128, 128, kernel_size=(3, 3), stride=(1, 1), padding=(2, 2), dilation=(2, 2))
      (1): BatchNorm2d(128, eps=1e-05, momentum=0.1, affine=True, track_running_stats=True)
      (2): LeakyReLU(negative_slope=0.1, inplace=True)
    )
    (2): Sequential(
      (0): Conv2d(128, 128, kernel_size=(3, 3), stride=(1, 1), padding=(4, 4), dilation=(4, 4))
      (1): BatchNorm2d(128, eps=1e-05, momentum=0.1, affine=True, track_running_stats=True)
      (2): LeakyReLU(negative_slope=0.1, inplace=True)
    )
    (3): Sequential(
      (0): Conv2d(128, 96, kernel_size=(3, 3), stride=(1, 1), padding=(8, 8), dilation=(8, 8))
      (1): BatchNorm2d(96, eps=1e-05, momentum=0.1, affine=True, track_running_stats=True)
      (2): LeakyReLU(negative_slope=0.1, inplace=True)
    )
    (4): Sequential(
      (0): Conv2d(96, 64, kernel_size=(3, 3), stride=(1, 1), padding=(16, 16), dilation=(16, 16))
      (1): BatchNorm2d(64, eps=1e-05, momentum=0.1, affine=True, track_running_stats=True)
      (2): LeakyReLU(negative_slope=0.1, inplace=True)
    )
    (5): Sequential(
      (0): Conv2d(64, 32, kernel_size=(3, 3), stride=(1, 1), padding=(1, 1))
      (1): BatchNorm2d(32, eps=1e-05, momentum=0.1, affine=True, track_running_stats=True)
      (2): LeakyReLU(negative_slope=0.1, inplace=True)
    )
    (6): Conv2d(32, 1, kernel_size=(3, 3), stride=(1, 1), padding=(1, 1))
  )
  (dc4_convo): Sequential(
    (0): Sequential(
      (0): Conv2d(320, 128, kernel_size=(3, 3), stride=(1, 1), padding=(1, 1))
      (1): BatchNorm2d(128, eps=1e-05, momentum=0.1, affine=True, track_running_stats=True)
      (2): LeakyReLU(negative_slope=0.1, inplace=True)
    )
    (1): Sequential(
      (0): Conv2d(128, 128, kernel_size=(3, 3), stride=(1, 1), padding=(2, 2), dilation=(2, 2))
      (1): BatchNorm2d(128, eps=1e-05, momentum=0.1, affine=True, track_running_stats=True)
      (2): LeakyReLU(negative_slope=0.1, inplace=True)
    )
    (2): Sequential(
      (0): Conv2d(128, 128, kernel_size=(3, 3), stride=(1, 1), padding=(4, 4), dilation=(4, 4))
      (1): BatchNorm2d(128, eps=1e-05, momentum=0.1, affine=True, track_running_stats=True)
      (2): LeakyReLU(negative_slope=0.1, inplace=True)
    )
    (3): Sequential(
      (0): Conv2d(128, 96, kernel_size=(3, 3), stride=(1, 1), padding=(8, 8), dilation=(8, 8))
      (1): BatchNorm2d(96, eps=1e-05, momentum=0.1, affine=True, track_running_stats=True)
      (2): LeakyReLU(negative_slope=0.1, inplace=True)
    )
    (4): Sequential(
      (0): Conv2d(96, 64, kernel_size=(3, 3), stride=(1, 1), padding=(16, 16), dilation=(16, 16))
      (1): BatchNorm2d(64, eps=1e-05, momentum=0.1, affine=True, track_running_stats=True)
      (2): LeakyReLU(negative_slope=0.1, inplace=True)
    )
    (5): Sequential(
      (0): Conv2d(64, 32, kernel_size=(3, 3), stride=(1, 1), padding=(1, 1))
      (1): BatchNorm2d(32, eps=1e-05, momentum=0.1, affine=True, track_running_stats=True)
      (2): LeakyReLU(negative_slope=0.1, inplace=True)
    )
    (6): Conv2d(32, 1, kernel_size=(3, 3), stride=(1, 1), padding=(1, 1))
  )
  (dc3_convo): Sequential(
    (0): Sequential(
      (0): Conv2d(320, 128, kernel_size=(3, 3), stride=(1, 1), padding=(1, 1))
      (1): BatchNorm2d(128, eps=1e-05, momentum=0.1, affine=True, track_running_stats=True)
      (2): LeakyReLU(negative_slope=0.1, inplace=True)
    )
    (1): Sequential(
      (0): Conv2d(128, 128, kernel_size=(3, 3), stride=(1, 1), padding=(2, 2), dilation=(2, 2))
      (1): BatchNorm2d(128, eps=1e-05, momentum=0.1, affine=True, track_running_stats=True)
      (2): LeakyReLU(negative_slope=0.1, inplace=True)
    )
    (2): Sequential(
      (0): Conv2d(128, 128, kernel_size=(3, 3), stride=(1, 1), padding=(4, 4), dilation=(4, 4))
      (1): BatchNorm2d(128, eps=1e-05, momentum=0.1, affine=True, track_running_stats=True)
      (2): LeakyReLU(negative_slope=0.1, inplace=True)
    )
    (3): Sequential(
      (0): Conv2d(128, 96, kernel_size=(3, 3), stride=(1, 1), padding=(8, 8), dilation=(8, 8))
      (1): BatchNorm2d(96, eps=1e-05, momentum=0.1, affine=True, track_running_stats=True)
      (2): LeakyReLU(negative_slope=0.1, inplace=True)
    )
    (4): Sequential(
      (0): Conv2d(96, 64, kernel_size=(3, 3), stride=(1, 1), padding=(16, 16), dilation=(16, 16))
      (1): BatchNorm2d(64, eps=1e-05, momentum=0.1, affine=True, track_running_stats=True)
      (2): LeakyReLU(negative_slope=0.1, inplace=True)
    )
    (5): Sequential(
      (0): Conv2d(64, 32, kernel_size=(3, 3), stride=(1, 1), padding=(1, 1))
      (1): BatchNorm2d(32, eps=1e-05, momentum=0.1, affine=True, track_running_stats=True)
      (2): LeakyReLU(negative_slope=0.1, inplace=True)
    )
    (6): Conv2d(32, 1, kernel_size=(3, 3), stride=(1, 1), padding=(1, 1))
  )
  (dc2_convo): Sequential(
    (0): Sequential(
      (0): Conv2d(368, 128, kernel_size=(3, 3), stride=(1, 1), padding=(1, 1))
      (1): BatchNorm2d(128, eps=1e-05, momentum=0.1, affine=True, track_running_stats=True)
      (2): LeakyReLU(negative_slope=0.1, inplace=True)
    )
    (1): Sequential(
      (0): Conv2d(128, 128, kernel_size=(3, 3), stride=(1, 1), padding=(2, 2), dilation=(2, 2))
      (1): BatchNorm2d(128, eps=1e-05, momentum=0.1, affine=True, track_running_stats=True)
      (2): LeakyReLU(negative_slope=0.1, inplace=True)
    )
    (2): Sequential(
      (0): Conv2d(128, 128, kernel_size=(3, 3), stride=(1, 1), padding=(4, 4), dilation=(4, 4))
      (1): BatchNorm2d(128, eps=1e-05, momentum=0.1, affine=True, track_running_stats=True)
      (2): LeakyReLU(negative_slope=0.1, inplace=True)
    )
    (3): Sequential(
      (0): Conv2d(128, 96, kernel_size=(3, 3), stride=(1, 1), padding=(8, 8), dilation=(8, 8))
      (1): BatchNorm2d(96, eps=1e-05, momentum=0.1, affine=True, track_running_stats=True)
      (2): LeakyReLU(negative_slope=0.1, inplace=True)
    )
    (4): Sequential(
      (0): Conv2d(96, 64, kernel_size=(3, 3), stride=(1, 1), padding=(16, 16), dilation=(16, 16))
      (1): BatchNorm2d(64, eps=1e-05, momentum=0.1, affine=True, track_running_stats=True)
      (2): LeakyReLU(negative_slope=0.1, inplace=True)
    )
    (5): Sequential(
      (0): Conv2d(64, 32, kernel_size=(3, 3), stride=(1, 1), padding=(1, 1))
      (1): BatchNorm2d(32, eps=1e-05, momentum=0.1, affine=True, track_running_stats=True)
      (2): LeakyReLU(negative_slope=0.1, inplace=True)
    )
    (6): Conv2d(32, 1, kernel_size=(3, 3), stride=(1, 1), padding=(1, 1))
  )
  (f3d2v1): Sequential(
    (0): Conv2d(64, 32, kernel_size=(3, 3), stride=(1, 1), padding=(1, 1))
    (1): BatchNorm2d(32, eps=1e-05, momentum=0.1, affine=True, track_running_stats=True)
    (2): LeakyReLU(negative_slope=0.1, inplace=True)
  )
  (f3d2v2): Sequential(
    (0): Conv2d(1, 32, kernel_size=(3, 3), stride=(1, 1), padding=(1, 1))
    (1): BatchNorm2d(32, eps=1e-05, momentum=0.1, affine=True, track_running_stats=True)
    (2): LeakyReLU(negative_slope=0.1, inplace=True)
  )
  (f3d2v3): Sequential(
    (0): Conv2d(1, 32, kernel_size=(3, 3), stride=(1, 1), padding=(1, 1))
    (1): BatchNorm2d(32, eps=1e-05, momentum=0.1, affine=True, track_running_stats=True)
    (2): LeakyReLU(negative_slope=0.1, inplace=True)
  )
  (f3d2v4): Sequential(
    (0): Conv2d(1, 32, kernel_size=(3, 3), stride=(1, 1), padding=(1, 1))
    (1): BatchNorm2d(32, eps=1e-05, momentum=0.1, affine=True, track_running_stats=True)
    (2): LeakyReLU(negative_slope=0.1, inplace=True)
  )
  (f3d2v5): Sequential(
    (0): Conv2d(64, 32, kernel_size=(3, 3), stride=(1, 1), padding=(1, 1))
    (1): BatchNorm2d(32, eps=1e-05, momentum=0.1, affine=True, track_running_stats=True)
    (2): LeakyReLU(negative_slope=0.1, inplace=True)
  )
  (f3d2v6): Sequential(
    (0): Conv2d(972, 32, kernel_size=(3, 3), stride=(1, 1), padding=(1, 1))
    (1): BatchNorm2d(32, eps=1e-05, momentum=0.1, affine=True, track_running_stats=True)
    (2): LeakyReLU(negative_slope=0.1, inplace=True)
  )
  (f3d2): bfmodule(
    (proj): conv2DBatchNormRelu(
      (cbr_unit): Sequential(
        (0): Conv2d(64, 64, kernel_size=(1, 1), stride=(1, 1), bias=False)
        (1): BatchNorm2d(64, eps=1e-05, momentum=0.1, affine=True, track_running_stats=True)
        (2): LeakyReLU(negative_slope=0.1, inplace=True)
      )
    )
    (res_block3): Sequential(
      (0): residualBlock(
        (convbnrelu1): conv2DBatchNormRelu(
          (cbr_unit): Sequential(
            (0): Conv2d(64, 64, kernel_size=(3, 3), stride=(2, 2), padding=(1, 1), bias=False)
            (1): BatchNorm2d(64, eps=1e-05, momentum=0.1, affine=True, track_running_stats=True)
            (2): LeakyReLU(negative_slope=0.1, inplace=True)
          )
        )
        (convbn2): conv2DBatchNorm(
          (cb_unit): Sequential(
            (0): Conv2d(64, 64, kernel_size=(3, 3), stride=(1, 1), padding=(1, 1), bias=False)
            (1): BatchNorm2d(64, eps=1e-05, momentum=0.1, affine=True, track_running_stats=True)
          )
        )
        (downsample): Sequential(
          (0): Conv2d(64, 64, kernel_size=(1, 1), stride=(2, 2), bias=False)
          (1): BatchNorm2d(64, eps=1e-05, momentum=0.1, affine=True, track_running_stats=True)
        )
        (relu): LeakyReLU(negative_slope=0.1, inplace=True)
      )
    )
    (res_block5): Sequential(
      (0): residualBlock(
        (convbnrelu1): conv2DBatchNormRelu(
          (cbr_unit): Sequential(
            (0): Conv2d(64, 64, kernel_size=(3, 3), stride=(2, 2), padding=(1, 1), bias=False)
            (1): BatchNorm2d(64, eps=1e-05, momentum=0.1, affine=True, track_running_stats=True)
            (2): LeakyReLU(negative_slope=0.1, inplace=True)
          )
        )
        (convbn2): conv2DBatchNorm(
          (cb_unit): Sequential(
            (0): Conv2d(64, 64, kernel_size=(3, 3), stride=(1, 1), padding=(1, 1), bias=False)
            (1): BatchNorm2d(64, eps=1e-05, momentum=0.1, affine=True, track_running_stats=True)
          )
        )
        (downsample): Sequential(
          (0): Conv2d(64, 64, kernel_size=(1, 1), stride=(2, 2), bias=False)
          (1): BatchNorm2d(64, eps=1e-05, momentum=0.1, affine=True, track_running_stats=True)
        )
        (relu): LeakyReLU(negative_slope=0.1, inplace=True)
      )
    )
    (res_block6): Sequential(
      (0): residualBlock(
        (convbnrelu1): conv2DBatchNormRelu(
          (cbr_unit): Sequential(
            (0): Conv2d(64, 64, kernel_size=(3, 3), stride=(2, 2), padding=(1, 1), bias=False)
            (1): BatchNorm2d(64, eps=1e-05, momentum=0.1, affine=True, track_running_stats=True)
            (2): LeakyReLU(negative_slope=0.1, inplace=True)
          )
        )
        (convbn2): conv2DBatchNorm(
          (cb_unit): Sequential(
            (0): Conv2d(64, 64, kernel_size=(3, 3), stride=(1, 1), padding=(1, 1), bias=False)
            (1): BatchNorm2d(64, eps=1e-05, momentum=0.1, affine=True, track_running_stats=True)
          )
        )
        (downsample): Sequential(
          (0): Conv2d(64, 64, kernel_size=(1, 1), stride=(2, 2), bias=False)
          (1): BatchNorm2d(64, eps=1e-05, momentum=0.1, affine=True, track_running_stats=True)
        )
        (relu): LeakyReLU(negative_slope=0.1, inplace=True)
      )
    )
    (res_block7): Sequential(
      (0): residualBlock(
        (convbnrelu1): conv2DBatchNormRelu(
          (cbr_unit): Sequential(
            (0): Conv2d(64, 128, kernel_size=(3, 3), stride=(2, 2), padding=(1, 1), bias=False)
            (1): BatchNorm2d(128, eps=1e-05, momentum=0.1, affine=True, track_running_stats=True)
            (2): LeakyReLU(negative_slope=0.1, inplace=True)
          )
        )
        (convbn2): conv2DBatchNorm(
          (cb_unit): Sequential(
            (0): Conv2d(128, 128, kernel_size=(3, 3), stride=(1, 1), padding=(1, 1), bias=False)
            (1): BatchNorm2d(128, eps=1e-05, momentum=0.1, affine=True, track_running_stats=True)
          )
        )
        (downsample): Sequential(
          (0): Conv2d(64, 128, kernel_size=(1, 1), stride=(2, 2), bias=False)
          (1): BatchNorm2d(128, eps=1e-05, momentum=0.1, affine=True, track_running_stats=True)
        )
        (relu): LeakyReLU(negative_slope=0.1, inplace=True)
      )
    )
    (pyramid_pooling): pyramidPooling(
      (path_module_list): ModuleList(
        (0): conv2DBatchNormRelu(
          (cbr_unit): Sequential(
            (0): Conv2d(128, 128, kernel_size=(1, 1), stride=(1, 1), bias=False)
            (1): BatchNorm2d(128, eps=1e-05, momentum=0.1, affine=True, track_running_stats=True)
            (2): LeakyReLU(negative_slope=0.1, inplace=True)
          )
        )
        (1): conv2DBatchNormRelu(
          (cbr_unit): Sequential(
            (0): Conv2d(128, 128, kernel_size=(1, 1), stride=(1, 1), bias=False)
            (1): BatchNorm2d(128, eps=1e-05, momentum=0.1, affine=True, track_running_stats=True)
            (2): LeakyReLU(negative_slope=0.1, inplace=True)
          )
        )
        (2): conv2DBatchNormRelu(
          (cbr_unit): Sequential(
            (0): Conv2d(128, 128, kernel_size=(1, 1), stride=(1, 1), bias=False)
            (1): BatchNorm2d(128, eps=1e-05, momentum=0.1, affine=True, track_running_stats=True)
            (2): LeakyReLU(negative_slope=0.1, inplace=True)
          )
        )
      )
      (relu): LeakyReLU(negative_slope=0.1, inplace=True)
    )
    (upconv6): conv2DBatchNormRelu(
      (cbr_unit): Sequential(
        (0): Conv2d(128, 64, kernel_size=(3, 3), stride=(1, 1), padding=(1, 1), bias=False)
        (1): BatchNorm2d(64, eps=1e-05, momentum=0.1, affine=True, track_running_stats=True)
        (2): LeakyReLU(negative_slope=0.1, inplace=True)
      )
    )
    (upconv5): conv2DBatchNormRelu(
      (cbr_unit): Sequential(
        (0): Conv2d(64, 32, kernel_size=(3, 3), stride=(1, 1), padding=(1, 1), bias=False)
        (1): BatchNorm2d(32, eps=1e-05, momentum=0.1, affine=True, track_running_stats=True)
        (2): LeakyReLU(negative_slope=0.1, inplace=True)
      )
    )
    (upconv4): conv2DBatchNormRelu(
      (cbr_unit): Sequential(
        (0): Conv2d(64, 32, kernel_size=(3, 3), stride=(1, 1), padding=(1, 1), bias=False)
        (1): BatchNorm2d(32, eps=1e-05, momentum=0.1, affine=True, track_running_stats=True)
        (2): LeakyReLU(negative_slope=0.1, inplace=True)
      )
    )
    (upconv3): conv2DBatchNormRelu(
      (cbr_unit): Sequential(
        (0): Conv2d(64, 32, kernel_size=(3, 3), stride=(1, 1), padding=(1, 1), bias=False)
        (1): BatchNorm2d(32, eps=1e-05, momentum=0.1, affine=True, track_running_stats=True)
        (2): LeakyReLU(negative_slope=0.1, inplace=True)
      )
    )
    (iconv5): conv2DBatchNormRelu(
      (cbr_unit): Sequential(
        (0): Conv2d(128, 64, kernel_size=(3, 3), stride=(1, 1), padding=(1, 1), bias=False)
        (1): BatchNorm2d(64, eps=1e-05, momentum=0.1, affine=True, track_running_stats=True)
        (2): LeakyReLU(negative_slope=0.1, inplace=True)
      )
    )
    (iconv4): conv2DBatchNormRelu(
      (cbr_unit): Sequential(
        (0): Conv2d(96, 64, kernel_size=(3, 3), stride=(1, 1), padding=(1, 1), bias=False)
        (1): BatchNorm2d(64, eps=1e-05, momentum=0.1, affine=True, track_running_stats=True)
        (2): LeakyReLU(negative_slope=0.1, inplace=True)
      )
    )
    (iconv3): conv2DBatchNormRelu(
      (cbr_unit): Sequential(
        (0): Conv2d(96, 64, kernel_size=(3, 3), stride=(1, 1), padding=(1, 1), bias=False)
        (1): BatchNorm2d(64, eps=1e-05, momentum=0.1, affine=True, track_running_stats=True)
        (2): LeakyReLU(negative_slope=0.1, inplace=True)
      )
    )
    (iconv2): Sequential(
      (0): conv2DBatchNormRelu(
        (cbr_unit): Sequential(
          (0): Conv2d(96, 64, kernel_size=(3, 3), stride=(1, 1), padding=(1, 1), bias=False)
          (1): BatchNorm2d(64, eps=1e-05, momentum=0.1, affine=True, track_running_stats=True)
          (2): LeakyReLU(negative_slope=0.1, inplace=True)
        )
      )
      (1): Conv2d(64, 1, kernel_size=(3, 3), stride=(1, 1), padding=(1, 1))
    )
    (proj6): Conv2d(128, 1, kernel_size=(3, 3), stride=(1, 1), padding=(1, 1))
    (proj5): Conv2d(64, 1, kernel_size=(3, 3), stride=(1, 1), padding=(1, 1))
    (proj4): Conv2d(64, 1, kernel_size=(3, 3), stride=(1, 1), padding=(1, 1))
    (proj3): Conv2d(64, 1, kernel_size=(3, 3), stride=(1, 1), padding=(1, 1))
  )
  (dcnetv1): Sequential(
    (0): Conv2d(64, 32, kernel_size=(3, 3), stride=(1, 1), padding=(1, 1))
    (1): BatchNorm2d(32, eps=1e-05, momentum=0.1, affine=True, track_running_stats=True)
    (2): LeakyReLU(negative_slope=0.1, inplace=True)
  )
  (dcnetv2): Sequential(
    (0): Conv2d(1, 32, kernel_size=(3, 3), stride=(1, 1), padding=(1, 1))
    (1): BatchNorm2d(32, eps=1e-05, momentum=0.1, affine=True, track_running_stats=True)
    (2): LeakyReLU(negative_slope=0.1, inplace=True)
  )
  (dcnetv3): Sequential(
    (0): Conv2d(1, 32, kernel_size=(3, 3), stride=(1, 1), padding=(1, 1))
    (1): BatchNorm2d(32, eps=1e-05, momentum=0.1, affine=True, track_running_stats=True)
    (2): LeakyReLU(negative_slope=0.1, inplace=True)
  )
  (dcnetv4): Sequential(
    (0): Conv2d(1, 32, kernel_size=(3, 3), stride=(1, 1), padding=(1, 1))
    (1): BatchNorm2d(32, eps=1e-05, momentum=0.1, affine=True, track_running_stats=True)
    (2): LeakyReLU(negative_slope=0.1, inplace=True)
  )
  (dcnetv5): Sequential(
    (0): Conv2d(972, 32, kernel_size=(3, 3), stride=(1, 1), padding=(1, 1))
    (1): BatchNorm2d(32, eps=1e-05, momentum=0.1, affine=True, track_running_stats=True)
    (2): LeakyReLU(negative_slope=0.1, inplace=True)
  )
  (dcnetv6): Sequential(
    (0): Conv2d(4, 32, kernel_size=(3, 3), stride=(1, 1), padding=(1, 1))
    (1): BatchNorm2d(32, eps=1e-05, momentum=0.1, affine=True, track_running_stats=True)
    (2): LeakyReLU(negative_slope=0.1, inplace=True)
  )
  (dcnet): bfmodule(
    (proj): conv2DBatchNormRelu(
      (cbr_unit): Sequential(
        (0): Conv2d(128, 64, kernel_size=(1, 1), stride=(1, 1), bias=False)
        (1): BatchNorm2d(64, eps=1e-05, momentum=0.1, affine=True, track_running_stats=True)
        (2): LeakyReLU(negative_slope=0.1, inplace=True)
      )
    )
    (res_block3): Sequential(
      (0): residualBlock(
        (convbnrelu1): conv2DBatchNormRelu(
          (cbr_unit): Sequential(
            (0): Conv2d(64, 64, kernel_size=(3, 3), stride=(2, 2), padding=(1, 1), bias=False)
            (1): BatchNorm2d(64, eps=1e-05, momentum=0.1, affine=True, track_running_stats=True)
            (2): LeakyReLU(negative_slope=0.1, inplace=True)
          )
        )
        (convbn2): conv2DBatchNorm(
          (cb_unit): Sequential(
            (0): Conv2d(64, 64, kernel_size=(3, 3), stride=(1, 1), padding=(1, 1), bias=False)
            (1): BatchNorm2d(64, eps=1e-05, momentum=0.1, affine=True, track_running_stats=True)
          )
        )
        (downsample): Sequential(
          (0): Conv2d(64, 64, kernel_size=(1, 1), stride=(2, 2), bias=False)
          (1): BatchNorm2d(64, eps=1e-05, momentum=0.1, affine=True, track_running_stats=True)
        )
        (relu): LeakyReLU(negative_slope=0.1, inplace=True)
      )
    )
    (res_block5): Sequential(
      (0): residualBlock(
        (convbnrelu1): conv2DBatchNormRelu(
          (cbr_unit): Sequential(
            (0): Conv2d(64, 64, kernel_size=(3, 3), stride=(2, 2), padding=(1, 1), bias=False)
            (1): BatchNorm2d(64, eps=1e-05, momentum=0.1, affine=True, track_running_stats=True)
            (2): LeakyReLU(negative_slope=0.1, inplace=True)
          )
        )
        (convbn2): conv2DBatchNorm(
          (cb_unit): Sequential(
            (0): Conv2d(64, 64, kernel_size=(3, 3), stride=(1, 1), padding=(1, 1), bias=False)
            (1): BatchNorm2d(64, eps=1e-05, momentum=0.1, affine=True, track_running_stats=True)
          )
        )
        (downsample): Sequential(
          (0): Conv2d(64, 64, kernel_size=(1, 1), stride=(2, 2), bias=False)
          (1): BatchNorm2d(64, eps=1e-05, momentum=0.1, affine=True, track_running_stats=True)
        )
        (relu): LeakyReLU(negative_slope=0.1, inplace=True)
      )
    )
    (res_block6): Sequential(
      (0): residualBlock(
        (convbnrelu1): conv2DBatchNormRelu(
          (cbr_unit): Sequential(
            (0): Conv2d(64, 64, kernel_size=(3, 3), stride=(2, 2), padding=(1, 1), bias=False)
            (1): BatchNorm2d(64, eps=1e-05, momentum=0.1, affine=True, track_running_stats=True)
            (2): LeakyReLU(negative_slope=0.1, inplace=True)
          )
        )
        (convbn2): conv2DBatchNorm(
          (cb_unit): Sequential(
            (0): Conv2d(64, 64, kernel_size=(3, 3), stride=(1, 1), padding=(1, 1), bias=False)
            (1): BatchNorm2d(64, eps=1e-05, momentum=0.1, affine=True, track_running_stats=True)
          )
        )
        (downsample): Sequential(
          (0): Conv2d(64, 64, kernel_size=(1, 1), stride=(2, 2), bias=False)
          (1): BatchNorm2d(64, eps=1e-05, momentum=0.1, affine=True, track_running_stats=True)
        )
        (relu): LeakyReLU(negative_slope=0.1, inplace=True)
      )
    )
    (res_block7): Sequential(
      (0): residualBlock(
        (convbnrelu1): conv2DBatchNormRelu(
          (cbr_unit): Sequential(
            (0): Conv2d(64, 128, kernel_size=(3, 3), stride=(2, 2), padding=(1, 1), bias=False)
            (1): BatchNorm2d(128, eps=1e-05, momentum=0.1, affine=True, track_running_stats=True)
            (2): LeakyReLU(negative_slope=0.1, inplace=True)
          )
        )
        (convbn2): conv2DBatchNorm(
          (cb_unit): Sequential(
            (0): Conv2d(128, 128, kernel_size=(3, 3), stride=(1, 1), padding=(1, 1), bias=False)
            (1): BatchNorm2d(128, eps=1e-05, momentum=0.1, affine=True, track_running_stats=True)
          )
        )
        (downsample): Sequential(
          (0): Conv2d(64, 128, kernel_size=(1, 1), stride=(2, 2), bias=False)
          (1): BatchNorm2d(128, eps=1e-05, momentum=0.1, affine=True, track_running_stats=True)
        )
        (relu): LeakyReLU(negative_slope=0.1, inplace=True)
      )
    )
    (pyramid_pooling): pyramidPooling(
      (path_module_list): ModuleList(
        (0): conv2DBatchNormRelu(
          (cbr_unit): Sequential(
            (0): Conv2d(128, 128, kernel_size=(1, 1), stride=(1, 1), bias=False)
            (1): BatchNorm2d(128, eps=1e-05, momentum=0.1, affine=True, track_running_stats=True)
            (2): LeakyReLU(negative_slope=0.1, inplace=True)
          )
        )
        (1): conv2DBatchNormRelu(
          (cbr_unit): Sequential(
            (0): Conv2d(128, 128, kernel_size=(1, 1), stride=(1, 1), bias=False)
            (1): BatchNorm2d(128, eps=1e-05, momentum=0.1, affine=True, track_running_stats=True)
            (2): LeakyReLU(negative_slope=0.1, inplace=True)
          )
        )
        (2): conv2DBatchNormRelu(
          (cbr_unit): Sequential(
            (0): Conv2d(128, 128, kernel_size=(1, 1), stride=(1, 1), bias=False)
            (1): BatchNorm2d(128, eps=1e-05, momentum=0.1, affine=True, track_running_stats=True)
            (2): LeakyReLU(negative_slope=0.1, inplace=True)
          )
        )
      )
      (relu): LeakyReLU(negative_slope=0.1, inplace=True)
    )
    (upconv6): conv2DBatchNormRelu(
      (cbr_unit): Sequential(
        (0): Conv2d(128, 64, kernel_size=(3, 3), stride=(1, 1), padding=(1, 1), bias=False)
        (1): BatchNorm2d(64, eps=1e-05, momentum=0.1, affine=True, track_running_stats=True)
        (2): LeakyReLU(negative_slope=0.1, inplace=True)
      )
    )
    (upconv5): conv2DBatchNormRelu(
      (cbr_unit): Sequential(
        (0): Conv2d(64, 32, kernel_size=(3, 3), stride=(1, 1), padding=(1, 1), bias=False)
        (1): BatchNorm2d(32, eps=1e-05, momentum=0.1, affine=True, track_running_stats=True)
        (2): LeakyReLU(negative_slope=0.1, inplace=True)
      )
    )
    (upconv4): conv2DBatchNormRelu(
      (cbr_unit): Sequential(
        (0): Conv2d(64, 32, kernel_size=(3, 3), stride=(1, 1), padding=(1, 1), bias=False)
        (1): BatchNorm2d(32, eps=1e-05, momentum=0.1, affine=True, track_running_stats=True)
        (2): LeakyReLU(negative_slope=0.1, inplace=True)
      )
    )
    (upconv3): conv2DBatchNormRelu(
      (cbr_unit): Sequential(
        (0): Conv2d(64, 32, kernel_size=(3, 3), stride=(1, 1), padding=(1, 1), bias=False)
        (1): BatchNorm2d(32, eps=1e-05, momentum=0.1, affine=True, track_running_stats=True)
        (2): LeakyReLU(negative_slope=0.1, inplace=True)
      )
    )
    (iconv5): conv2DBatchNormRelu(
      (cbr_unit): Sequential(
        (0): Conv2d(128, 64, kernel_size=(3, 3), stride=(1, 1), padding=(1, 1), bias=False)
        (1): BatchNorm2d(64, eps=1e-05, momentum=0.1, affine=True, track_running_stats=True)
        (2): LeakyReLU(negative_slope=0.1, inplace=True)
      )
    )
    (iconv4): conv2DBatchNormRelu(
      (cbr_unit): Sequential(
        (0): Conv2d(96, 64, kernel_size=(3, 3), stride=(1, 1), padding=(1, 1), bias=False)
        (1): BatchNorm2d(64, eps=1e-05, momentum=0.1, affine=True, track_running_stats=True)
        (2): LeakyReLU(negative_slope=0.1, inplace=True)
      )
    )
    (iconv3): conv2DBatchNormRelu(
      (cbr_unit): Sequential(
        (0): Conv2d(96, 64, kernel_size=(3, 3), stride=(1, 1), padding=(1, 1), bias=False)
        (1): BatchNorm2d(64, eps=1e-05, momentum=0.1, affine=True, track_running_stats=True)
        (2): LeakyReLU(negative_slope=0.1, inplace=True)
      )
    )
    (iconv2): Sequential(
      (0): conv2DBatchNormRelu(
        (cbr_unit): Sequential(
          (0): Conv2d(96, 64, kernel_size=(3, 3), stride=(1, 1), padding=(1, 1), bias=False)
          (1): BatchNorm2d(64, eps=1e-05, momentum=0.1, affine=True, track_running_stats=True)
          (2): LeakyReLU(negative_slope=0.1, inplace=True)
        )
      )
      (1): Conv2d(64, 1, kernel_size=(3, 3), stride=(1, 1), padding=(1, 1))
    )
    (proj6): Conv2d(128, 1, kernel_size=(3, 3), stride=(1, 1), padding=(1, 1))
    (proj5): Conv2d(64, 1, kernel_size=(3, 3), stride=(1, 1), padding=(1, 1))
    (proj4): Conv2d(64, 1, kernel_size=(3, 3), stride=(1, 1), padding=(1, 1))
    (proj3): Conv2d(64, 1, kernel_size=(3, 3), stride=(1, 1), padding=(1, 1))
  )
  (warp_modules): ModuleList(
    (0): None
    (1): WarpModule()
    (2): WarpModule()
    (3): WarpModule()
    (4): WarpModule()
  )
  (f_modules): ModuleList(
    (0): butterfly4D(
      (proj): Sequential(
        (0): projfeat4d(
          (conv1): Conv3d(128, 16, kernel_size=(1, 1, 1), stride=(1, 1, 1), bias=False)
          (bn): BatchNorm3d(16, eps=1e-05, momentum=0.1, affine=True, track_running_stats=True)
        )
        (1): ReLU(inplace=True)
      )
      (conva1): sepConv4dBlock(
        (downsample): projfeat4d(
          (conv1): Conv3d(16, 16, kernel_size=(1, 1, 1), stride=(2, 2, 1), bias=False)
          (bn): BatchNorm3d(16, eps=1e-05, momentum=0.1, affine=True, track_running_stats=True)
        )
        (conv1): sepConv4d(
          (conv1): Sequential(
            (0): Conv3d(16, 16, kernel_size=(1, 3, 3), stride=(1, 1, 1), padding=(0, 1, 1), bias=False)
            (1): BatchNorm3d(16, eps=1e-05, momentum=0.1, affine=True, track_running_stats=True)
          )
          (conv2): Sequential(
            (0): Conv3d(16, 16, kernel_size=(3, 3, 1), stride=(2, 2, 1), padding=(1, 1, 0), bias=False)
            (1): BatchNorm3d(16, eps=1e-05, momentum=0.1, affine=True, track_running_stats=True)
          )
          (relu): ReLU(inplace=True)
        )
        (conv2): sepConv4d(
          (conv1): Sequential(
            (0): Conv3d(16, 16, kernel_size=(1, 3, 3), stride=(1, 1, 1), padding=(0, 1, 1), bias=False)
            (1): BatchNorm3d(16, eps=1e-05, momentum=0.1, affine=True, track_running_stats=True)
          )
          (conv2): Sequential(
            (0): Conv3d(16, 16, kernel_size=(3, 3, 1), stride=(1, 1, 1), padding=(1, 1, 0), bias=False)
            (1): BatchNorm3d(16, eps=1e-05, momentum=0.1, affine=True, track_running_stats=True)
          )
          (relu): ReLU(inplace=True)
        )
        (relu1): ReLU(inplace=True)
        (relu2): ReLU(inplace=True)
      )
      (conva2): sepConv4dBlock(
        (downsample): projfeat4d(
          (conv1): Conv3d(16, 16, kernel_size=(1, 1, 1), stride=(2, 2, 1), bias=False)
          (bn): BatchNorm3d(16, eps=1e-05, momentum=0.1, affine=True, track_running_stats=True)
        )
        (conv1): sepConv4d(
          (conv1): Sequential(
            (0): Conv3d(16, 16, kernel_size=(1, 3, 3), stride=(1, 1, 1), padding=(0, 1, 1), bias=False)
            (1): BatchNorm3d(16, eps=1e-05, momentum=0.1, affine=True, track_running_stats=True)
          )
          (conv2): Sequential(
            (0): Conv3d(16, 16, kernel_size=(3, 3, 1), stride=(2, 2, 1), padding=(1, 1, 0), bias=False)
            (1): BatchNorm3d(16, eps=1e-05, momentum=0.1, affine=True, track_running_stats=True)
          )
          (relu): ReLU(inplace=True)
        )
        (conv2): sepConv4d(
          (conv1): Sequential(
            (0): Conv3d(16, 16, kernel_size=(1, 3, 3), stride=(1, 1, 1), padding=(0, 1, 1), bias=False)
            (1): BatchNorm3d(16, eps=1e-05, momentum=0.1, affine=True, track_running_stats=True)
          )
          (conv2): Sequential(
            (0): Conv3d(16, 16, kernel_size=(3, 3, 1), stride=(1, 1, 1), padding=(1, 1, 0), bias=False)
            (1): BatchNorm3d(16, eps=1e-05, momentum=0.1, affine=True, track_running_stats=True)
          )
          (relu): ReLU(inplace=True)
        )
        (relu1): ReLU(inplace=True)
        (relu2): ReLU(inplace=True)
      )
      (convb3): sepConv4dBlock(
        (conv1): sepConv4d(
          (conv1): Sequential(
            (0): Conv3d(16, 16, kernel_size=(1, 3, 3), stride=(1, 1, 1), padding=(0, 1, 1), bias=False)
            (1): BatchNorm3d(16, eps=1e-05, momentum=0.1, affine=True, track_running_stats=True)
          )
          (conv2): Sequential(
            (0): Conv3d(16, 16, kernel_size=(3, 3, 1), stride=(1, 1, 1), padding=(1, 1, 0), bias=False)
            (1): BatchNorm3d(16, eps=1e-05, momentum=0.1, affine=True, track_running_stats=True)
          )
          (relu): ReLU(inplace=True)
        )
        (conv2): sepConv4d(
          (conv1): Sequential(
            (0): Conv3d(16, 16, kernel_size=(1, 3, 3), stride=(1, 1, 1), padding=(0, 1, 1), bias=False)
            (1): BatchNorm3d(16, eps=1e-05, momentum=0.1, affine=True, track_running_stats=True)
          )
          (conv2): Sequential(
            (0): Conv3d(16, 16, kernel_size=(3, 3, 1), stride=(1, 1, 1), padding=(1, 1, 0), bias=False)
            (1): BatchNorm3d(16, eps=1e-05, momentum=0.1, affine=True, track_running_stats=True)
          )
          (relu): ReLU(inplace=True)
        )
        (relu1): ReLU(inplace=True)
        (relu2): ReLU(inplace=True)
      )
      (convb2): sepConv4dBlock(
        (conv1): sepConv4d(
          (conv1): Sequential(
            (0): Conv3d(16, 16, kernel_size=(1, 3, 3), stride=(1, 1, 1), padding=(0, 1, 1), bias=False)
            (1): BatchNorm3d(16, eps=1e-05, momentum=0.1, affine=True, track_running_stats=True)
          )
          (conv2): Sequential(
            (0): Conv3d(16, 16, kernel_size=(3, 3, 1), stride=(1, 1, 1), padding=(1, 1, 0), bias=False)
            (1): BatchNorm3d(16, eps=1e-05, momentum=0.1, affine=True, track_running_stats=True)
          )
          (relu): ReLU(inplace=True)
        )
        (conv2): sepConv4d(
          (conv1): Sequential(
            (0): Conv3d(16, 16, kernel_size=(1, 3, 3), stride=(1, 1, 1), padding=(0, 1, 1), bias=False)
            (1): BatchNorm3d(16, eps=1e-05, momentum=0.1, affine=True, track_running_stats=True)
          )
          (conv2): Sequential(
            (0): Conv3d(16, 16, kernel_size=(3, 3, 1), stride=(1, 1, 1), padding=(1, 1, 0), bias=False)
            (1): BatchNorm3d(16, eps=1e-05, momentum=0.1, affine=True, track_running_stats=True)
          )
          (relu): ReLU(inplace=True)
        )
        (relu1): ReLU(inplace=True)
        (relu2): ReLU(inplace=True)
      )
      (convb1): sepConv4dBlock(
        (conv1): sepConv4d(
          (conv1): Sequential(
            (0): Conv3d(16, 16, kernel_size=(1, 3, 3), stride=(1, 1, 1), padding=(0, 1, 1), bias=False)
            (1): BatchNorm3d(16, eps=1e-05, momentum=0.1, affine=True, track_running_stats=True)
          )
          (conv2): Sequential(
            (0): Conv3d(16, 16, kernel_size=(3, 3, 1), stride=(1, 1, 1), padding=(1, 1, 0), bias=False)
            (1): BatchNorm3d(16, eps=1e-05, momentum=0.1, affine=True, track_running_stats=True)
          )
          (relu): ReLU(inplace=True)
        )
        (conv2): sepConv4d(
          (conv1): Sequential(
            (0): Conv3d(16, 16, kernel_size=(1, 3, 3), stride=(1, 1, 1), padding=(0, 1, 1), bias=False)
            (1): BatchNorm3d(16, eps=1e-05, momentum=0.1, affine=True, track_running_stats=True)
          )
          (conv2): Sequential(
            (0): Conv3d(16, 16, kernel_size=(3, 3, 1), stride=(1, 1, 1), padding=(1, 1, 0), bias=False)
            (1): BatchNorm3d(16, eps=1e-05, momentum=0.1, affine=True, track_running_stats=True)
          )
          (relu): ReLU(inplace=True)
        )
        (relu1): ReLU(inplace=True)
        (relu2): ReLU(inplace=True)
      )
    )
    (1): butterfly4D(
      (proj): Sequential(
        (0): projfeat4d(
          (conv1): Conv3d(128, 16, kernel_size=(1, 1, 1), stride=(1, 1, 1), bias=False)
          (bn): BatchNorm3d(16, eps=1e-05, momentum=0.1, affine=True, track_running_stats=True)
        )
        (1): ReLU(inplace=True)
      )
      (conva1): sepConv4dBlock(
        (downsample): projfeat4d(
          (conv1): Conv3d(16, 16, kernel_size=(1, 1, 1), stride=(2, 2, 1), bias=False)
          (bn): BatchNorm3d(16, eps=1e-05, momentum=0.1, affine=True, track_running_stats=True)
        )
        (conv1): sepConv4d(
          (conv1): Sequential(
            (0): Conv3d(16, 16, kernel_size=(1, 3, 3), stride=(1, 1, 1), padding=(0, 1, 1), bias=False)
            (1): BatchNorm3d(16, eps=1e-05, momentum=0.1, affine=True, track_running_stats=True)
          )
          (conv2): Sequential(
            (0): Conv3d(16, 16, kernel_size=(3, 3, 1), stride=(2, 2, 1), padding=(1, 1, 0), bias=False)
            (1): BatchNorm3d(16, eps=1e-05, momentum=0.1, affine=True, track_running_stats=True)
          )
          (relu): ReLU(inplace=True)
        )
        (conv2): sepConv4d(
          (conv1): Sequential(
            (0): Conv3d(16, 16, kernel_size=(1, 3, 3), stride=(1, 1, 1), padding=(0, 1, 1), bias=False)
            (1): BatchNorm3d(16, eps=1e-05, momentum=0.1, affine=True, track_running_stats=True)
          )
          (conv2): Sequential(
            (0): Conv3d(16, 16, kernel_size=(3, 3, 1), stride=(1, 1, 1), padding=(1, 1, 0), bias=False)
            (1): BatchNorm3d(16, eps=1e-05, momentum=0.1, affine=True, track_running_stats=True)
          )
          (relu): ReLU(inplace=True)
        )
        (relu1): ReLU(inplace=True)
        (relu2): ReLU(inplace=True)
      )
      (conva2): sepConv4dBlock(
        (downsample): projfeat4d(
          (conv1): Conv3d(16, 16, kernel_size=(1, 1, 1), stride=(2, 2, 1), bias=False)
          (bn): BatchNorm3d(16, eps=1e-05, momentum=0.1, affine=True, track_running_stats=True)
        )
        (conv1): sepConv4d(
          (conv1): Sequential(
            (0): Conv3d(16, 16, kernel_size=(1, 3, 3), stride=(1, 1, 1), padding=(0, 1, 1), bias=False)
            (1): BatchNorm3d(16, eps=1e-05, momentum=0.1, affine=True, track_running_stats=True)
          )
          (conv2): Sequential(
            (0): Conv3d(16, 16, kernel_size=(3, 3, 1), stride=(2, 2, 1), padding=(1, 1, 0), bias=False)
            (1): BatchNorm3d(16, eps=1e-05, momentum=0.1, affine=True, track_running_stats=True)
          )
          (relu): ReLU(inplace=True)
        )
        (conv2): sepConv4d(
          (conv1): Sequential(
            (0): Conv3d(16, 16, kernel_size=(1, 3, 3), stride=(1, 1, 1), padding=(0, 1, 1), bias=False)
            (1): BatchNorm3d(16, eps=1e-05, momentum=0.1, affine=True, track_running_stats=True)
          )
          (conv2): Sequential(
            (0): Conv3d(16, 16, kernel_size=(3, 3, 1), stride=(1, 1, 1), padding=(1, 1, 0), bias=False)
            (1): BatchNorm3d(16, eps=1e-05, momentum=0.1, affine=True, track_running_stats=True)
          )
          (relu): ReLU(inplace=True)
        )
        (relu1): ReLU(inplace=True)
        (relu2): ReLU(inplace=True)
      )
      (convb3): sepConv4dBlock(
        (conv1): sepConv4d(
          (conv1): Sequential(
            (0): Conv3d(16, 16, kernel_size=(1, 3, 3), stride=(1, 1, 1), padding=(0, 1, 1), bias=False)
            (1): BatchNorm3d(16, eps=1e-05, momentum=0.1, affine=True, track_running_stats=True)
          )
          (conv2): Sequential(
            (0): Conv3d(16, 16, kernel_size=(3, 3, 1), stride=(1, 1, 1), padding=(1, 1, 0), bias=False)
            (1): BatchNorm3d(16, eps=1e-05, momentum=0.1, affine=True, track_running_stats=True)
          )
          (relu): ReLU(inplace=True)
        )
        (conv2): sepConv4d(
          (conv1): Sequential(
            (0): Conv3d(16, 16, kernel_size=(1, 3, 3), stride=(1, 1, 1), padding=(0, 1, 1), bias=False)
            (1): BatchNorm3d(16, eps=1e-05, momentum=0.1, affine=True, track_running_stats=True)
          )
          (conv2): Sequential(
            (0): Conv3d(16, 16, kernel_size=(3, 3, 1), stride=(1, 1, 1), padding=(1, 1, 0), bias=False)
            (1): BatchNorm3d(16, eps=1e-05, momentum=0.1, affine=True, track_running_stats=True)
          )
          (relu): ReLU(inplace=True)
        )
        (relu1): ReLU(inplace=True)
        (relu2): ReLU(inplace=True)
      )
      (convb2): sepConv4dBlock(
        (conv1): sepConv4d(
          (conv1): Sequential(
            (0): Conv3d(16, 16, kernel_size=(1, 3, 3), stride=(1, 1, 1), padding=(0, 1, 1), bias=False)
            (1): BatchNorm3d(16, eps=1e-05, momentum=0.1, affine=True, track_running_stats=True)
          )
          (conv2): Sequential(
            (0): Conv3d(16, 16, kernel_size=(3, 3, 1), stride=(1, 1, 1), padding=(1, 1, 0), bias=False)
            (1): BatchNorm3d(16, eps=1e-05, momentum=0.1, affine=True, track_running_stats=True)
          )
          (relu): ReLU(inplace=True)
        )
        (conv2): sepConv4d(
          (conv1): Sequential(
            (0): Conv3d(16, 16, kernel_size=(1, 3, 3), stride=(1, 1, 1), padding=(0, 1, 1), bias=False)
            (1): BatchNorm3d(16, eps=1e-05, momentum=0.1, affine=True, track_running_stats=True)
          )
          (conv2): Sequential(
            (0): Conv3d(16, 16, kernel_size=(3, 3, 1), stride=(1, 1, 1), padding=(1, 1, 0), bias=False)
            (1): BatchNorm3d(16, eps=1e-05, momentum=0.1, affine=True, track_running_stats=True)
          )
          (relu): ReLU(inplace=True)
        )
        (relu1): ReLU(inplace=True)
        (relu2): ReLU(inplace=True)
      )
      (convb1): sepConv4dBlock(
        (conv1): sepConv4d(
          (conv1): Sequential(
            (0): Conv3d(16, 16, kernel_size=(1, 3, 3), stride=(1, 1, 1), padding=(0, 1, 1), bias=False)
            (1): BatchNorm3d(16, eps=1e-05, momentum=0.1, affine=True, track_running_stats=True)
          )
          (conv2): Sequential(
            (0): Conv3d(16, 16, kernel_size=(3, 3, 1), stride=(1, 1, 1), padding=(1, 1, 0), bias=False)
            (1): BatchNorm3d(16, eps=1e-05, momentum=0.1, affine=True, track_running_stats=True)
          )
          (relu): ReLU(inplace=True)
        )
        (conv2): sepConv4d(
          (conv1): Sequential(
            (0): Conv3d(16, 16, kernel_size=(1, 3, 3), stride=(1, 1, 1), padding=(0, 1, 1), bias=False)
            (1): BatchNorm3d(16, eps=1e-05, momentum=0.1, affine=True, track_running_stats=True)
          )
          (conv2): Sequential(
            (0): Conv3d(16, 16, kernel_size=(3, 3, 1), stride=(1, 1, 1), padding=(1, 1, 0), bias=False)
            (1): BatchNorm3d(16, eps=1e-05, momentum=0.1, affine=True, track_running_stats=True)
          )
          (relu): ReLU(inplace=True)
        )
        (relu1): ReLU(inplace=True)
        (relu2): ReLU(inplace=True)
      )
    )
    (2): butterfly4D(
      (proj): Sequential(
        (0): projfeat4d(
          (conv1): Conv3d(128, 16, kernel_size=(1, 1, 1), stride=(1, 1, 1), bias=False)
          (bn): BatchNorm3d(16, eps=1e-05, momentum=0.1, affine=True, track_running_stats=True)
        )
        (1): ReLU(inplace=True)
      )
      (conva1): sepConv4dBlock(
        (downsample): projfeat4d(
          (conv1): Conv3d(16, 16, kernel_size=(1, 1, 1), stride=(2, 2, 1), bias=False)
          (bn): BatchNorm3d(16, eps=1e-05, momentum=0.1, affine=True, track_running_stats=True)
        )
        (conv1): sepConv4d(
          (conv1): Sequential(
            (0): Conv3d(16, 16, kernel_size=(1, 3, 3), stride=(1, 1, 1), padding=(0, 1, 1), bias=False)
            (1): BatchNorm3d(16, eps=1e-05, momentum=0.1, affine=True, track_running_stats=True)
          )
          (conv2): Sequential(
            (0): Conv3d(16, 16, kernel_size=(3, 3, 1), stride=(2, 2, 1), padding=(1, 1, 0), bias=False)
            (1): BatchNorm3d(16, eps=1e-05, momentum=0.1, affine=True, track_running_stats=True)
          )
          (relu): ReLU(inplace=True)
        )
        (conv2): sepConv4d(
          (conv1): Sequential(
            (0): Conv3d(16, 16, kernel_size=(1, 3, 3), stride=(1, 1, 1), padding=(0, 1, 1), bias=False)
            (1): BatchNorm3d(16, eps=1e-05, momentum=0.1, affine=True, track_running_stats=True)
          )
          (conv2): Sequential(
            (0): Conv3d(16, 16, kernel_size=(3, 3, 1), stride=(1, 1, 1), padding=(1, 1, 0), bias=False)
            (1): BatchNorm3d(16, eps=1e-05, momentum=0.1, affine=True, track_running_stats=True)
          )
          (relu): ReLU(inplace=True)
        )
        (relu1): ReLU(inplace=True)
        (relu2): ReLU(inplace=True)
      )
      (conva2): sepConv4dBlock(
        (downsample): projfeat4d(
          (conv1): Conv3d(16, 16, kernel_size=(1, 1, 1), stride=(2, 2, 1), bias=False)
          (bn): BatchNorm3d(16, eps=1e-05, momentum=0.1, affine=True, track_running_stats=True)
        )
        (conv1): sepConv4d(
          (conv1): Sequential(
            (0): Conv3d(16, 16, kernel_size=(1, 3, 3), stride=(1, 1, 1), padding=(0, 1, 1), bias=False)
            (1): BatchNorm3d(16, eps=1e-05, momentum=0.1, affine=True, track_running_stats=True)
          )
          (conv2): Sequential(
            (0): Conv3d(16, 16, kernel_size=(3, 3, 1), stride=(2, 2, 1), padding=(1, 1, 0), bias=False)
            (1): BatchNorm3d(16, eps=1e-05, momentum=0.1, affine=True, track_running_stats=True)
          )
          (relu): ReLU(inplace=True)
        )
        (conv2): sepConv4d(
          (conv1): Sequential(
            (0): Conv3d(16, 16, kernel_size=(1, 3, 3), stride=(1, 1, 1), padding=(0, 1, 1), bias=False)
            (1): BatchNorm3d(16, eps=1e-05, momentum=0.1, affine=True, track_running_stats=True)
          )
          (conv2): Sequential(
            (0): Conv3d(16, 16, kernel_size=(3, 3, 1), stride=(1, 1, 1), padding=(1, 1, 0), bias=False)
            (1): BatchNorm3d(16, eps=1e-05, momentum=0.1, affine=True, track_running_stats=True)
          )
          (relu): ReLU(inplace=True)
        )
        (relu1): ReLU(inplace=True)
        (relu2): ReLU(inplace=True)
      )
      (convb3): sepConv4dBlock(
        (conv1): sepConv4d(
          (conv1): Sequential(
            (0): Conv3d(16, 16, kernel_size=(1, 3, 3), stride=(1, 1, 1), padding=(0, 1, 1), bias=False)
            (1): BatchNorm3d(16, eps=1e-05, momentum=0.1, affine=True, track_running_stats=True)
          )
          (conv2): Sequential(
            (0): Conv3d(16, 16, kernel_size=(3, 3, 1), stride=(1, 1, 1), padding=(1, 1, 0), bias=False)
            (1): BatchNorm3d(16, eps=1e-05, momentum=0.1, affine=True, track_running_stats=True)
          )
          (relu): ReLU(inplace=True)
        )
        (conv2): sepConv4d(
          (conv1): Sequential(
            (0): Conv3d(16, 16, kernel_size=(1, 3, 3), stride=(1, 1, 1), padding=(0, 1, 1), bias=False)
            (1): BatchNorm3d(16, eps=1e-05, momentum=0.1, affine=True, track_running_stats=True)
          )
          (conv2): Sequential(
            (0): Conv3d(16, 16, kernel_size=(3, 3, 1), stride=(1, 1, 1), padding=(1, 1, 0), bias=False)
            (1): BatchNorm3d(16, eps=1e-05, momentum=0.1, affine=True, track_running_stats=True)
          )
          (relu): ReLU(inplace=True)
        )
        (relu1): ReLU(inplace=True)
        (relu2): ReLU(inplace=True)
      )
      (convb2): sepConv4dBlock(
        (conv1): sepConv4d(
          (conv1): Sequential(
            (0): Conv3d(16, 16, kernel_size=(1, 3, 3), stride=(1, 1, 1), padding=(0, 1, 1), bias=False)
            (1): BatchNorm3d(16, eps=1e-05, momentum=0.1, affine=True, track_running_stats=True)
          )
          (conv2): Sequential(
            (0): Conv3d(16, 16, kernel_size=(3, 3, 1), stride=(1, 1, 1), padding=(1, 1, 0), bias=False)
            (1): BatchNorm3d(16, eps=1e-05, momentum=0.1, affine=True, track_running_stats=True)
          )
          (relu): ReLU(inplace=True)
        )
        (conv2): sepConv4d(
          (conv1): Sequential(
            (0): Conv3d(16, 16, kernel_size=(1, 3, 3), stride=(1, 1, 1), padding=(0, 1, 1), bias=False)
            (1): BatchNorm3d(16, eps=1e-05, momentum=0.1, affine=True, track_running_stats=True)
          )
          (conv2): Sequential(
            (0): Conv3d(16, 16, kernel_size=(3, 3, 1), stride=(1, 1, 1), padding=(1, 1, 0), bias=False)
            (1): BatchNorm3d(16, eps=1e-05, momentum=0.1, affine=True, track_running_stats=True)
          )
          (relu): ReLU(inplace=True)
        )
        (relu1): ReLU(inplace=True)
        (relu2): ReLU(inplace=True)
      )
      (convb1): sepConv4dBlock(
        (conv1): sepConv4d(
          (conv1): Sequential(
            (0): Conv3d(16, 16, kernel_size=(1, 3, 3), stride=(1, 1, 1), padding=(0, 1, 1), bias=False)
            (1): BatchNorm3d(16, eps=1e-05, momentum=0.1, affine=True, track_running_stats=True)
          )
          (conv2): Sequential(
            (0): Conv3d(16, 16, kernel_size=(3, 3, 1), stride=(1, 1, 1), padding=(1, 1, 0), bias=False)
            (1): BatchNorm3d(16, eps=1e-05, momentum=0.1, affine=True, track_running_stats=True)
          )
          (relu): ReLU(inplace=True)
        )
        (conv2): sepConv4d(
          (conv1): Sequential(
            (0): Conv3d(16, 16, kernel_size=(1, 3, 3), stride=(1, 1, 1), padding=(0, 1, 1), bias=False)
            (1): BatchNorm3d(16, eps=1e-05, momentum=0.1, affine=True, track_running_stats=True)
          )
          (conv2): Sequential(
            (0): Conv3d(16, 16, kernel_size=(3, 3, 1), stride=(1, 1, 1), padding=(1, 1, 0), bias=False)
            (1): BatchNorm3d(16, eps=1e-05, momentum=0.1, affine=True, track_running_stats=True)
          )
          (relu): ReLU(inplace=True)
        )
        (relu1): ReLU(inplace=True)
        (relu2): ReLU(inplace=True)
      )
    )
    (3): butterfly4D(
      (proj): Sequential(
        (0): projfeat4d(
          (conv1): Conv3d(64, 16, kernel_size=(1, 1, 1), stride=(1, 1, 1), bias=False)
          (bn): BatchNorm3d(16, eps=1e-05, momentum=0.1, affine=True, track_running_stats=True)
        )
        (1): ReLU(inplace=True)
      )
      (conva1): sepConv4dBlock(
        (downsample): projfeat4d(
          (conv1): Conv3d(16, 16, kernel_size=(1, 1, 1), stride=(2, 2, 1), bias=False)
          (bn): BatchNorm3d(16, eps=1e-05, momentum=0.1, affine=True, track_running_stats=True)
        )
        (conv1): sepConv4d(
          (conv1): Sequential(
            (0): Conv3d(16, 16, kernel_size=(1, 3, 3), stride=(1, 1, 1), padding=(0, 1, 1), bias=False)
            (1): BatchNorm3d(16, eps=1e-05, momentum=0.1, affine=True, track_running_stats=True)
          )
          (conv2): Sequential(
            (0): Conv3d(16, 16, kernel_size=(3, 3, 1), stride=(2, 2, 1), padding=(1, 1, 0), bias=False)
            (1): BatchNorm3d(16, eps=1e-05, momentum=0.1, affine=True, track_running_stats=True)
          )
          (relu): ReLU(inplace=True)
        )
        (conv2): sepConv4d(
          (conv1): Sequential(
            (0): Conv3d(16, 16, kernel_size=(1, 3, 3), stride=(1, 1, 1), padding=(0, 1, 1), bias=False)
            (1): BatchNorm3d(16, eps=1e-05, momentum=0.1, affine=True, track_running_stats=True)
          )
          (conv2): Sequential(
            (0): Conv3d(16, 16, kernel_size=(3, 3, 1), stride=(1, 1, 1), padding=(1, 1, 0), bias=False)
            (1): BatchNorm3d(16, eps=1e-05, momentum=0.1, affine=True, track_running_stats=True)
          )
          (relu): ReLU(inplace=True)
        )
        (relu1): ReLU(inplace=True)
        (relu2): ReLU(inplace=True)
      )
      (conva2): sepConv4dBlock(
        (downsample): projfeat4d(
          (conv1): Conv3d(16, 16, kernel_size=(1, 1, 1), stride=(2, 2, 1), bias=False)
          (bn): BatchNorm3d(16, eps=1e-05, momentum=0.1, affine=True, track_running_stats=True)
        )
        (conv1): sepConv4d(
          (conv1): Sequential(
            (0): Conv3d(16, 16, kernel_size=(1, 3, 3), stride=(1, 1, 1), padding=(0, 1, 1), bias=False)
            (1): BatchNorm3d(16, eps=1e-05, momentum=0.1, affine=True, track_running_stats=True)
          )
          (conv2): Sequential(
            (0): Conv3d(16, 16, kernel_size=(3, 3, 1), stride=(2, 2, 1), padding=(1, 1, 0), bias=False)
            (1): BatchNorm3d(16, eps=1e-05, momentum=0.1, affine=True, track_running_stats=True)
          )
          (relu): ReLU(inplace=True)
        )
        (conv2): sepConv4d(
          (conv1): Sequential(
            (0): Conv3d(16, 16, kernel_size=(1, 3, 3), stride=(1, 1, 1), padding=(0, 1, 1), bias=False)
            (1): BatchNorm3d(16, eps=1e-05, momentum=0.1, affine=True, track_running_stats=True)
          )
          (conv2): Sequential(
            (0): Conv3d(16, 16, kernel_size=(3, 3, 1), stride=(1, 1, 1), padding=(1, 1, 0), bias=False)
            (1): BatchNorm3d(16, eps=1e-05, momentum=0.1, affine=True, track_running_stats=True)
          )
          (relu): ReLU(inplace=True)
        )
        (relu1): ReLU(inplace=True)
        (relu2): ReLU(inplace=True)
      )
      (convb3): sepConv4dBlock(
        (conv1): sepConv4d(
          (conv1): Sequential(
            (0): Conv3d(16, 16, kernel_size=(1, 3, 3), stride=(1, 1, 1), padding=(0, 1, 1), bias=False)
            (1): BatchNorm3d(16, eps=1e-05, momentum=0.1, affine=True, track_running_stats=True)
          )
          (conv2): Sequential(
            (0): Conv3d(16, 16, kernel_size=(3, 3, 1), stride=(1, 1, 1), padding=(1, 1, 0), bias=False)
            (1): BatchNorm3d(16, eps=1e-05, momentum=0.1, affine=True, track_running_stats=True)
          )
          (relu): ReLU(inplace=True)
        )
        (conv2): sepConv4d(
          (conv1): Sequential(
            (0): Conv3d(16, 16, kernel_size=(1, 3, 3), stride=(1, 1, 1), padding=(0, 1, 1), bias=False)
            (1): BatchNorm3d(16, eps=1e-05, momentum=0.1, affine=True, track_running_stats=True)
          )
          (conv2): Sequential(
            (0): Conv3d(16, 16, kernel_size=(3, 3, 1), stride=(1, 1, 1), padding=(1, 1, 0), bias=False)
            (1): BatchNorm3d(16, eps=1e-05, momentum=0.1, affine=True, track_running_stats=True)
          )
          (relu): ReLU(inplace=True)
        )
        (relu1): ReLU(inplace=True)
        (relu2): ReLU(inplace=True)
      )
      (convb2): sepConv4dBlock(
        (conv1): sepConv4d(
          (conv1): Sequential(
            (0): Conv3d(16, 16, kernel_size=(1, 3, 3), stride=(1, 1, 1), padding=(0, 1, 1), bias=False)
            (1): BatchNorm3d(16, eps=1e-05, momentum=0.1, affine=True, track_running_stats=True)
          )
          (conv2): Sequential(
            (0): Conv3d(16, 16, kernel_size=(3, 3, 1), stride=(1, 1, 1), padding=(1, 1, 0), bias=False)
            (1): BatchNorm3d(16, eps=1e-05, momentum=0.1, affine=True, track_running_stats=True)
          )
          (relu): ReLU(inplace=True)
        )
        (conv2): sepConv4d(
          (conv1): Sequential(
            (0): Conv3d(16, 16, kernel_size=(1, 3, 3), stride=(1, 1, 1), padding=(0, 1, 1), bias=False)
            (1): BatchNorm3d(16, eps=1e-05, momentum=0.1, affine=True, track_running_stats=True)
          )
          (conv2): Sequential(
            (0): Conv3d(16, 16, kernel_size=(3, 3, 1), stride=(1, 1, 1), padding=(1, 1, 0), bias=False)
            (1): BatchNorm3d(16, eps=1e-05, momentum=0.1, affine=True, track_running_stats=True)
          )
          (relu): ReLU(inplace=True)
        )
        (relu1): ReLU(inplace=True)
        (relu2): ReLU(inplace=True)
      )
      (convb1): sepConv4dBlock(
        (conv1): sepConv4d(
          (conv1): Sequential(
            (0): Conv3d(16, 16, kernel_size=(1, 3, 3), stride=(1, 1, 1), padding=(0, 1, 1), bias=False)
            (1): BatchNorm3d(16, eps=1e-05, momentum=0.1, affine=True, track_running_stats=True)
          )
          (conv2): Sequential(
            (0): Conv3d(16, 16, kernel_size=(3, 3, 1), stride=(1, 1, 1), padding=(1, 1, 0), bias=False)
            (1): BatchNorm3d(16, eps=1e-05, momentum=0.1, affine=True, track_running_stats=True)
          )
          (relu): ReLU(inplace=True)
        )
        (conv2): sepConv4d(
          (conv1): Sequential(
            (0): Conv3d(16, 16, kernel_size=(1, 3, 3), stride=(1, 1, 1), padding=(0, 1, 1), bias=False)
            (1): BatchNorm3d(16, eps=1e-05, momentum=0.1, affine=True, track_running_stats=True)
          )
          (conv2): Sequential(
            (0): Conv3d(16, 16, kernel_size=(3, 3, 1), stride=(1, 1, 1), padding=(1, 1, 0), bias=False)
            (1): BatchNorm3d(16, eps=1e-05, momentum=0.1, affine=True, track_running_stats=True)
          )
          (relu): ReLU(inplace=True)
        )
        (relu1): ReLU(inplace=True)
        (relu2): ReLU(inplace=True)
      )
    )
    (4): butterfly4D(
      (proj): Sequential(
        (0): projfeat4d(
          (conv1): Conv3d(64, 12, kernel_size=(1, 1, 1), stride=(1, 1, 1), bias=False)
          (bn): BatchNorm3d(12, eps=1e-05, momentum=0.1, affine=True, track_running_stats=True)
        )
        (1): ReLU(inplace=True)
      )
      (conva1): sepConv4dBlock(
        (downsample): sepConv4d(
          (conv1): Sequential(
            (0): Conv3d(12, 12, kernel_size=(1, 1, 1), stride=(1, 2, 2), bias=False)
            (1): BatchNorm3d(12, eps=1e-05, momentum=0.1, affine=True, track_running_stats=True)
          )
          (conv2): Sequential(
            (0): Conv3d(12, 12, kernel_size=(1, 1, 1), stride=(2, 2, 1), bias=False)
            (1): BatchNorm3d(12, eps=1e-05, momentum=0.1, affine=True, track_running_stats=True)
          )
          (relu): ReLU(inplace=True)
        )
        (conv1): sepConv4d(
          (conv1): Sequential(
            (0): Conv3d(12, 12, kernel_size=(1, 3, 3), stride=(1, 2, 2), padding=(0, 1, 1), bias=False)
            (1): BatchNorm3d(12, eps=1e-05, momentum=0.1, affine=True, track_running_stats=True)
          )
          (conv2): Sequential(
            (0): Conv3d(12, 12, kernel_size=(3, 3, 1), stride=(2, 2, 1), padding=(1, 1, 0), bias=False)
            (1): BatchNorm3d(12, eps=1e-05, momentum=0.1, affine=True, track_running_stats=True)
          )
          (relu): ReLU(inplace=True)
        )
        (conv2): sepConv4d(
          (conv1): Sequential(
            (0): Conv3d(12, 12, kernel_size=(1, 3, 3), stride=(1, 1, 1), padding=(0, 1, 1), bias=False)
            (1): BatchNorm3d(12, eps=1e-05, momentum=0.1, affine=True, track_running_stats=True)
          )
          (conv2): Sequential(
            (0): Conv3d(12, 12, kernel_size=(3, 3, 1), stride=(1, 1, 1), padding=(1, 1, 0), bias=False)
            (1): BatchNorm3d(12, eps=1e-05, momentum=0.1, affine=True, track_running_stats=True)
          )
          (relu): ReLU(inplace=True)
        )
        (relu1): ReLU(inplace=True)
        (relu2): ReLU(inplace=True)
      )
      (conva2): sepConv4dBlock(
        (downsample): sepConv4d(
          (conv1): Sequential(
            (0): Conv3d(12, 12, kernel_size=(1, 1, 1), stride=(1, 2, 2), bias=False)
            (1): BatchNorm3d(12, eps=1e-05, momentum=0.1, affine=True, track_running_stats=True)
          )
          (conv2): Sequential(
            (0): Conv3d(12, 12, kernel_size=(1, 1, 1), stride=(2, 2, 1), bias=False)
            (1): BatchNorm3d(12, eps=1e-05, momentum=0.1, affine=True, track_running_stats=True)
          )
          (relu): ReLU(inplace=True)
        )
        (conv1): sepConv4d(
          (conv1): Sequential(
            (0): Conv3d(12, 12, kernel_size=(1, 3, 3), stride=(1, 2, 2), padding=(0, 1, 1), bias=False)
            (1): BatchNorm3d(12, eps=1e-05, momentum=0.1, affine=True, track_running_stats=True)
          )
          (conv2): Sequential(
            (0): Conv3d(12, 12, kernel_size=(3, 3, 1), stride=(2, 2, 1), padding=(1, 1, 0), bias=False)
            (1): BatchNorm3d(12, eps=1e-05, momentum=0.1, affine=True, track_running_stats=True)
          )
          (relu): ReLU(inplace=True)
        )
        (conv2): sepConv4d(
          (conv1): Sequential(
            (0): Conv3d(12, 12, kernel_size=(1, 3, 3), stride=(1, 1, 1), padding=(0, 1, 1), bias=False)
            (1): BatchNorm3d(12, eps=1e-05, momentum=0.1, affine=True, track_running_stats=True)
          )
          (conv2): Sequential(
            (0): Conv3d(12, 12, kernel_size=(3, 3, 1), stride=(1, 1, 1), padding=(1, 1, 0), bias=False)
            (1): BatchNorm3d(12, eps=1e-05, momentum=0.1, affine=True, track_running_stats=True)
          )
          (relu): ReLU(inplace=True)
        )
        (relu1): ReLU(inplace=True)
        (relu2): ReLU(inplace=True)
      )
      (convb3): sepConv4dBlock(
        (conv1): sepConv4d(
          (conv1): Sequential(
            (0): Conv3d(12, 12, kernel_size=(1, 3, 3), stride=(1, 1, 1), padding=(0, 1, 1), bias=False)
            (1): BatchNorm3d(12, eps=1e-05, momentum=0.1, affine=True, track_running_stats=True)
          )
          (conv2): Sequential(
            (0): Conv3d(12, 12, kernel_size=(3, 3, 1), stride=(1, 1, 1), padding=(1, 1, 0), bias=False)
            (1): BatchNorm3d(12, eps=1e-05, momentum=0.1, affine=True, track_running_stats=True)
          )
          (relu): ReLU(inplace=True)
        )
        (conv2): sepConv4d(
          (conv1): Sequential(
            (0): Conv3d(12, 12, kernel_size=(1, 3, 3), stride=(1, 1, 1), padding=(0, 1, 1), bias=False)
            (1): BatchNorm3d(12, eps=1e-05, momentum=0.1, affine=True, track_running_stats=True)
          )
          (conv2): Sequential(
            (0): Conv3d(12, 12, kernel_size=(3, 3, 1), stride=(1, 1, 1), padding=(1, 1, 0), bias=False)
            (1): BatchNorm3d(12, eps=1e-05, momentum=0.1, affine=True, track_running_stats=True)
          )
          (relu): ReLU(inplace=True)
        )
        (relu1): ReLU(inplace=True)
        (relu2): ReLU(inplace=True)
      )
      (convb2): sepConv4dBlock(
        (conv1): sepConv4d(
          (conv1): Sequential(
            (0): Conv3d(12, 12, kernel_size=(1, 3, 3), stride=(1, 1, 1), padding=(0, 1, 1), bias=False)
            (1): BatchNorm3d(12, eps=1e-05, momentum=0.1, affine=True, track_running_stats=True)
          )
          (conv2): Sequential(
            (0): Conv3d(12, 12, kernel_size=(3, 3, 1), stride=(1, 1, 1), padding=(1, 1, 0), bias=False)
            (1): BatchNorm3d(12, eps=1e-05, momentum=0.1, affine=True, track_running_stats=True)
          )
          (relu): ReLU(inplace=True)
        )
        (conv2): sepConv4d(
          (conv1): Sequential(
            (0): Conv3d(12, 12, kernel_size=(1, 3, 3), stride=(1, 1, 1), padding=(0, 1, 1), bias=False)
            (1): BatchNorm3d(12, eps=1e-05, momentum=0.1, affine=True, track_running_stats=True)
          )
          (conv2): Sequential(
            (0): Conv3d(12, 12, kernel_size=(3, 3, 1), stride=(1, 1, 1), padding=(1, 1, 0), bias=False)
            (1): BatchNorm3d(12, eps=1e-05, momentum=0.1, affine=True, track_running_stats=True)
          )
          (relu): ReLU(inplace=True)
        )
        (relu1): ReLU(inplace=True)
        (relu2): ReLU(inplace=True)
      )
      (convb1): sepConv4dBlock(
        (conv1): sepConv4d(
          (conv1): Sequential(
            (0): Conv3d(12, 12, kernel_size=(1, 3, 3), stride=(1, 1, 1), padding=(0, 1, 1), bias=False)
            (1): BatchNorm3d(12, eps=1e-05, momentum=0.1, affine=True, track_running_stats=True)
          )
          (conv2): Sequential(
            (0): Conv3d(12, 12, kernel_size=(3, 3, 1), stride=(1, 1, 1), padding=(1, 1, 0), bias=False)
            (1): BatchNorm3d(12, eps=1e-05, momentum=0.1, affine=True, track_running_stats=True)
          )
          (relu): ReLU(inplace=True)
        )
        (conv2): sepConv4d(
          (conv1): Sequential(
            (0): Conv3d(12, 12, kernel_size=(1, 3, 3), stride=(1, 1, 1), padding=(0, 1, 1), bias=False)
            (1): BatchNorm3d(12, eps=1e-05, momentum=0.1, affine=True, track_running_stats=True)
          )
          (conv2): Sequential(
            (0): Conv3d(12, 12, kernel_size=(3, 3, 1), stride=(1, 1, 1), padding=(1, 1, 0), bias=False)
            (1): BatchNorm3d(12, eps=1e-05, momentum=0.1, affine=True, track_running_stats=True)
          )
          (relu): ReLU(inplace=True)
        )
        (relu1): ReLU(inplace=True)
        (relu2): ReLU(inplace=True)
      )
    )
  )
  (p_modules): ModuleList(
    (0): sepConv4d(
      (conv1): Conv3d(16, 16, kernel_size=(1, 3, 3), stride=(1, 1, 1), padding=(0, 1, 1))
      (conv2): Conv3d(16, 16, kernel_size=(3, 3, 1), stride=(1, 1, 1), padding=(1, 1, 0))
      (relu): ReLU(inplace=True)
    )
    (1): sepConv4d(
      (conv1): Conv3d(16, 16, kernel_size=(1, 3, 3), stride=(1, 1, 1), padding=(0, 1, 1))
      (conv2): Conv3d(16, 16, kernel_size=(3, 3, 1), stride=(1, 1, 1), padding=(1, 1, 0))
      (relu): ReLU(inplace=True)
    )
    (2): sepConv4d(
      (conv1): Conv3d(16, 16, kernel_size=(1, 3, 3), stride=(1, 1, 1), padding=(0, 1, 1))
      (conv2): Conv3d(16, 16, kernel_size=(3, 3, 1), stride=(1, 1, 1), padding=(1, 1, 0))
      (relu): ReLU(inplace=True)
    )
    (3): sepConv4d(
      (conv1): Conv3d(16, 16, kernel_size=(1, 3, 3), stride=(1, 1, 1), padding=(0, 1, 1))
      (conv2): Conv3d(16, 16, kernel_size=(3, 3, 1), stride=(1, 1, 1), padding=(1, 1, 0))
      (relu): ReLU(inplace=True)
    )
    (4): sepConv4d(
      (conv1): Conv3d(12, 12, kernel_size=(1, 3, 3), stride=(1, 1, 1), padding=(0, 1, 1))
      (conv2): Conv3d(12, 12, kernel_size=(3, 3, 1), stride=(1, 1, 1), padding=(1, 1, 0))
      (relu): ReLU(inplace=True)
    )
  )
  (reg_modules): ModuleList(
    (0): flow_reg(
      (pool3d): MaxPool3d(kernel_size=(7, 7, 1), stride=1, padding=(3, 3, 0), dilation=1, ceil_mode=False)
    )
    (1): flow_reg(
      (pool3d): MaxPool3d(kernel_size=(7, 7, 1), stride=1, padding=(3, 3, 0), dilation=1, ceil_mode=False)
    )
    (2): flow_reg(
      (pool3d): MaxPool3d(kernel_size=(7, 7, 1), stride=1, padding=(3, 3, 0), dilation=1, ceil_mode=False)
    )
    (3): flow_reg(
      (pool3d): MaxPool3d(kernel_size=(7, 7, 1), stride=1, padding=(3, 3, 0), dilation=1, ceil_mode=False)
    )
    (4): flow_reg(
      (pool3d): MaxPool3d(kernel_size=(7, 7, 1), stride=1, padding=(3, 3, 0), dilation=1, ceil_mode=False)
    )
  )
  (oor_modules): ModuleList(
    (0): Sequential(
      (0): Sequential(
        (0): Conv2d(192, 128, kernel_size=(3, 3), stride=(1, 1), padding=(1, 1))
        (1): BatchNorm2d(128, eps=1e-05, momentum=0.1, affine=True, track_running_stats=True)
        (2): LeakyReLU(negative_slope=0.1, inplace=True)
      )
      (1): Sequential(
        (0): Conv2d(128, 128, kernel_size=(3, 3), stride=(1, 1), padding=(2, 2), dilation=(2, 2))
        (1): BatchNorm2d(128, eps=1e-05, momentum=0.1, affine=True, track_running_stats=True)
        (2): LeakyReLU(negative_slope=0.1, inplace=True)
      )
      (2): Sequential(
        (0): Conv2d(128, 128, kernel_size=(3, 3), stride=(1, 1), padding=(4, 4), dilation=(4, 4))
        (1): BatchNorm2d(128, eps=1e-05, momentum=0.1, affine=True, track_running_stats=True)
        (2): LeakyReLU(negative_slope=0.1, inplace=True)
      )
      (3): Sequential(
        (0): Conv2d(128, 96, kernel_size=(3, 3), stride=(1, 1), padding=(8, 8), dilation=(8, 8))
        (1): BatchNorm2d(96, eps=1e-05, momentum=0.1, affine=True, track_running_stats=True)
        (2): LeakyReLU(negative_slope=0.1, inplace=True)
      )
      (4): Sequential(
        (0): Conv2d(96, 64, kernel_size=(3, 3), stride=(1, 1), padding=(16, 16), dilation=(16, 16))
        (1): BatchNorm2d(64, eps=1e-05, momentum=0.1, affine=True, track_running_stats=True)
        (2): LeakyReLU(negative_slope=0.1, inplace=True)
      )
      (5): Sequential(
        (0): Conv2d(64, 32, kernel_size=(3, 3), stride=(1, 1), padding=(1, 1))
        (1): BatchNorm2d(32, eps=1e-05, momentum=0.1, affine=True, track_running_stats=True)
        (2): LeakyReLU(negative_slope=0.1, inplace=True)
      )
      (6): Conv2d(32, 1, kernel_size=(3, 3), stride=(1, 1), padding=(1, 1))
    )
    (1): Sequential(
      (0): Sequential(
        (0): Conv2d(256, 128, kernel_size=(3, 3), stride=(1, 1), padding=(1, 1))
        (1): BatchNorm2d(128, eps=1e-05, momentum=0.1, affine=True, track_running_stats=True)
        (2): LeakyReLU(negative_slope=0.1, inplace=True)
      )
      (1): Sequential(
        (0): Conv2d(128, 128, kernel_size=(3, 3), stride=(1, 1), padding=(2, 2), dilation=(2, 2))
        (1): BatchNorm2d(128, eps=1e-05, momentum=0.1, affine=True, track_running_stats=True)
        (2): LeakyReLU(negative_slope=0.1, inplace=True)
      )
      (2): Sequential(
        (0): Conv2d(128, 128, kernel_size=(3, 3), stride=(1, 1), padding=(4, 4), dilation=(4, 4))
        (1): BatchNorm2d(128, eps=1e-05, momentum=0.1, affine=True, track_running_stats=True)
        (2): LeakyReLU(negative_slope=0.1, inplace=True)
      )
      (3): Sequential(
        (0): Conv2d(128, 96, kernel_size=(3, 3), stride=(1, 1), padding=(8, 8), dilation=(8, 8))
        (1): BatchNorm2d(96, eps=1e-05, momentum=0.1, affine=True, track_running_stats=True)
        (2): LeakyReLU(negative_slope=0.1, inplace=True)
      )
      (4): Sequential(
        (0): Conv2d(96, 64, kernel_size=(3, 3), stride=(1, 1), padding=(16, 16), dilation=(16, 16))
        (1): BatchNorm2d(64, eps=1e-05, momentum=0.1, affine=True, track_running_stats=True)
        (2): LeakyReLU(negative_slope=0.1, inplace=True)
      )
      (5): Sequential(
        (0): Conv2d(64, 32, kernel_size=(3, 3), stride=(1, 1), padding=(1, 1))
        (1): BatchNorm2d(32, eps=1e-05, momentum=0.1, affine=True, track_running_stats=True)
        (2): LeakyReLU(negative_slope=0.1, inplace=True)
      )
      (6): Conv2d(32, 1, kernel_size=(3, 3), stride=(1, 1), padding=(1, 1))
    )
    (2): Sequential(
      (0): Sequential(
        (0): Conv2d(320, 128, kernel_size=(3, 3), stride=(1, 1), padding=(1, 1))
        (1): BatchNorm2d(128, eps=1e-05, momentum=0.1, affine=True, track_running_stats=True)
        (2): LeakyReLU(negative_slope=0.1, inplace=True)
      )
      (1): Sequential(
        (0): Conv2d(128, 128, kernel_size=(3, 3), stride=(1, 1), padding=(2, 2), dilation=(2, 2))
        (1): BatchNorm2d(128, eps=1e-05, momentum=0.1, affine=True, track_running_stats=True)
        (2): LeakyReLU(negative_slope=0.1, inplace=True)
      )
      (2): Sequential(
        (0): Conv2d(128, 128, kernel_size=(3, 3), stride=(1, 1), padding=(4, 4), dilation=(4, 4))
        (1): BatchNorm2d(128, eps=1e-05, momentum=0.1, affine=True, track_running_stats=True)
        (2): LeakyReLU(negative_slope=0.1, inplace=True)
      )
      (3): Sequential(
        (0): Conv2d(128, 96, kernel_size=(3, 3), stride=(1, 1), padding=(8, 8), dilation=(8, 8))
        (1): BatchNorm2d(96, eps=1e-05, momentum=0.1, affine=True, track_running_stats=True)
        (2): LeakyReLU(negative_slope=0.1, inplace=True)
      )
      (4): Sequential(
        (0): Conv2d(96, 64, kernel_size=(3, 3), stride=(1, 1), padding=(16, 16), dilation=(16, 16))
        (1): BatchNorm2d(64, eps=1e-05, momentum=0.1, affine=True, track_running_stats=True)
        (2): LeakyReLU(negative_slope=0.1, inplace=True)
      )
      (5): Sequential(
        (0): Conv2d(64, 32, kernel_size=(3, 3), stride=(1, 1), padding=(1, 1))
        (1): BatchNorm2d(32, eps=1e-05, momentum=0.1, affine=True, track_running_stats=True)
        (2): LeakyReLU(negative_slope=0.1, inplace=True)
      )
      (6): Conv2d(32, 1, kernel_size=(3, 3), stride=(1, 1), padding=(1, 1))
    )
    (3): Sequential(
      (0): Sequential(
        (0): Conv2d(320, 128, kernel_size=(3, 3), stride=(1, 1), padding=(1, 1))
        (1): BatchNorm2d(128, eps=1e-05, momentum=0.1, affine=True, track_running_stats=True)
        (2): LeakyReLU(negative_slope=0.1, inplace=True)
      )
      (1): Sequential(
        (0): Conv2d(128, 128, kernel_size=(3, 3), stride=(1, 1), padding=(2, 2), dilation=(2, 2))
        (1): BatchNorm2d(128, eps=1e-05, momentum=0.1, affine=True, track_running_stats=True)
        (2): LeakyReLU(negative_slope=0.1, inplace=True)
      )
      (2): Sequential(
        (0): Conv2d(128, 128, kernel_size=(3, 3), stride=(1, 1), padding=(4, 4), dilation=(4, 4))
        (1): BatchNorm2d(128, eps=1e-05, momentum=0.1, affine=True, track_running_stats=True)
        (2): LeakyReLU(negative_slope=0.1, inplace=True)
      )
      (3): Sequential(
        (0): Conv2d(128, 96, kernel_size=(3, 3), stride=(1, 1), padding=(8, 8), dilation=(8, 8))
        (1): BatchNorm2d(96, eps=1e-05, momentum=0.1, affine=True, track_running_stats=True)
        (2): LeakyReLU(negative_slope=0.1, inplace=True)
      )
      (4): Sequential(
        (0): Conv2d(96, 64, kernel_size=(3, 3), stride=(1, 1), padding=(16, 16), dilation=(16, 16))
        (1): BatchNorm2d(64, eps=1e-05, momentum=0.1, affine=True, track_running_stats=True)
        (2): LeakyReLU(negative_slope=0.1, inplace=True)
      )
      (5): Sequential(
        (0): Conv2d(64, 32, kernel_size=(3, 3), stride=(1, 1), padding=(1, 1))
        (1): BatchNorm2d(32, eps=1e-05, momentum=0.1, affine=True, track_running_stats=True)
        (2): LeakyReLU(negative_slope=0.1, inplace=True)
      )
      (6): Conv2d(32, 1, kernel_size=(3, 3), stride=(1, 1), padding=(1, 1))
    )
    (4): Sequential(
      (0): Sequential(
        (0): Conv2d(368, 128, kernel_size=(3, 3), stride=(1, 1), padding=(1, 1))
        (1): BatchNorm2d(128, eps=1e-05, momentum=0.1, affine=True, track_running_stats=True)
        (2): LeakyReLU(negative_slope=0.1, inplace=True)
      )
      (1): Sequential(
        (0): Conv2d(128, 128, kernel_size=(3, 3), stride=(1, 1), padding=(2, 2), dilation=(2, 2))
        (1): BatchNorm2d(128, eps=1e-05, momentum=0.1, affine=True, track_running_stats=True)
        (2): LeakyReLU(negative_slope=0.1, inplace=True)
      )
      (2): Sequential(
        (0): Conv2d(128, 128, kernel_size=(3, 3), stride=(1, 1), padding=(4, 4), dilation=(4, 4))
        (1): BatchNorm2d(128, eps=1e-05, momentum=0.1, affine=True, track_running_stats=True)
        (2): LeakyReLU(negative_slope=0.1, inplace=True)
      )
      (3): Sequential(
        (0): Conv2d(128, 96, kernel_size=(3, 3), stride=(1, 1), padding=(8, 8), dilation=(8, 8))
        (1): BatchNorm2d(96, eps=1e-05, momentum=0.1, affine=True, track_running_stats=True)
        (2): LeakyReLU(negative_slope=0.1, inplace=True)
      )
      (4): Sequential(
        (0): Conv2d(96, 64, kernel_size=(3, 3), stride=(1, 1), padding=(16, 16), dilation=(16, 16))
        (1): BatchNorm2d(64, eps=1e-05, momentum=0.1, affine=True, track_running_stats=True)
        (2): LeakyReLU(negative_slope=0.1, inplace=True)
      )
      (5): Sequential(
        (0): Conv2d(64, 32, kernel_size=(3, 3), stride=(1, 1), padding=(1, 1))
        (1): BatchNorm2d(32, eps=1e-05, momentum=0.1, affine=True, track_running_stats=True)
        (2): LeakyReLU(negative_slope=0.1, inplace=True)
      )
      (6): Conv2d(32, 1, kernel_size=(3, 3), stride=(1, 1), padding=(1, 1))
    )
  )
  (fuse_modules): ModuleList(
    (0): Sequential(
      (0): Sequential(
        (0): Conv2d(192, 128, kernel_size=(3, 3), stride=(1, 1), padding=(1, 1))
        (1): BatchNorm2d(128, eps=1e-05, momentum=0.1, affine=True, track_running_stats=True)
        (2): LeakyReLU(negative_slope=0.1, inplace=True)
      )
      (1): Sequential(
        (0): Conv2d(128, 128, kernel_size=(3, 3), stride=(1, 1), padding=(2, 2), dilation=(2, 2))
        (1): BatchNorm2d(128, eps=1e-05, momentum=0.1, affine=True, track_running_stats=True)
        (2): LeakyReLU(negative_slope=0.1, inplace=True)
      )
      (2): Sequential(
        (0): Conv2d(128, 128, kernel_size=(3, 3), stride=(1, 1), padding=(4, 4), dilation=(4, 4))
        (1): BatchNorm2d(128, eps=1e-05, momentum=0.1, affine=True, track_running_stats=True)
        (2): LeakyReLU(negative_slope=0.1, inplace=True)
      )
      (3): Sequential(
        (0): Conv2d(128, 96, kernel_size=(3, 3), stride=(1, 1), padding=(8, 8), dilation=(8, 8))
        (1): BatchNorm2d(96, eps=1e-05, momentum=0.1, affine=True, track_running_stats=True)
        (2): LeakyReLU(negative_slope=0.1, inplace=True)
      )
      (4): Sequential(
        (0): Conv2d(96, 64, kernel_size=(3, 3), stride=(1, 1), padding=(16, 16), dilation=(16, 16))
        (1): BatchNorm2d(64, eps=1e-05, momentum=0.1, affine=True, track_running_stats=True)
        (2): LeakyReLU(negative_slope=0.1, inplace=True)
      )
      (5): Sequential(
        (0): Conv2d(64, 32, kernel_size=(3, 3), stride=(1, 1), padding=(1, 1))
        (1): BatchNorm2d(32, eps=1e-05, momentum=0.1, affine=True, track_running_stats=True)
        (2): LeakyReLU(negative_slope=0.1, inplace=True)
      )
      (6): Conv2d(32, 32, kernel_size=(3, 3), stride=(1, 1), padding=(1, 1))
    )
    (1): Sequential(
      (0): Sequential(
        (0): Conv2d(256, 128, kernel_size=(3, 3), stride=(1, 1), padding=(1, 1))
        (1): BatchNorm2d(128, eps=1e-05, momentum=0.1, affine=True, track_running_stats=True)
        (2): LeakyReLU(negative_slope=0.1, inplace=True)
      )
      (1): Sequential(
        (0): Conv2d(128, 128, kernel_size=(3, 3), stride=(1, 1), padding=(2, 2), dilation=(2, 2))
        (1): BatchNorm2d(128, eps=1e-05, momentum=0.1, affine=True, track_running_stats=True)
        (2): LeakyReLU(negative_slope=0.1, inplace=True)
      )
      (2): Sequential(
        (0): Conv2d(128, 128, kernel_size=(3, 3), stride=(1, 1), padding=(4, 4), dilation=(4, 4))
        (1): BatchNorm2d(128, eps=1e-05, momentum=0.1, affine=True, track_running_stats=True)
        (2): LeakyReLU(negative_slope=0.1, inplace=True)
      )
      (3): Sequential(
        (0): Conv2d(128, 96, kernel_size=(3, 3), stride=(1, 1), padding=(8, 8), dilation=(8, 8))
        (1): BatchNorm2d(96, eps=1e-05, momentum=0.1, affine=True, track_running_stats=True)
        (2): LeakyReLU(negative_slope=0.1, inplace=True)
      )
      (4): Sequential(
        (0): Conv2d(96, 64, kernel_size=(3, 3), stride=(1, 1), padding=(16, 16), dilation=(16, 16))
        (1): BatchNorm2d(64, eps=1e-05, momentum=0.1, affine=True, track_running_stats=True)
        (2): LeakyReLU(negative_slope=0.1, inplace=True)
      )
      (5): Sequential(
        (0): Conv2d(64, 32, kernel_size=(3, 3), stride=(1, 1), padding=(1, 1))
        (1): BatchNorm2d(32, eps=1e-05, momentum=0.1, affine=True, track_running_stats=True)
        (2): LeakyReLU(negative_slope=0.1, inplace=True)
      )
      (6): Conv2d(32, 64, kernel_size=(3, 3), stride=(1, 1), padding=(1, 1))
    )
    (2): Sequential(
      (0): Sequential(
        (0): Conv2d(320, 128, kernel_size=(3, 3), stride=(1, 1), padding=(1, 1))
        (1): BatchNorm2d(128, eps=1e-05, momentum=0.1, affine=True, track_running_stats=True)
        (2): LeakyReLU(negative_slope=0.1, inplace=True)
      )
      (1): Sequential(
        (0): Conv2d(128, 128, kernel_size=(3, 3), stride=(1, 1), padding=(2, 2), dilation=(2, 2))
        (1): BatchNorm2d(128, eps=1e-05, momentum=0.1, affine=True, track_running_stats=True)
        (2): LeakyReLU(negative_slope=0.1, inplace=True)
      )
      (2): Sequential(
        (0): Conv2d(128, 128, kernel_size=(3, 3), stride=(1, 1), padding=(4, 4), dilation=(4, 4))
        (1): BatchNorm2d(128, eps=1e-05, momentum=0.1, affine=True, track_running_stats=True)
        (2): LeakyReLU(negative_slope=0.1, inplace=True)
      )
      (3): Sequential(
        (0): Conv2d(128, 96, kernel_size=(3, 3), stride=(1, 1), padding=(8, 8), dilation=(8, 8))
        (1): BatchNorm2d(96, eps=1e-05, momentum=0.1, affine=True, track_running_stats=True)
        (2): LeakyReLU(negative_slope=0.1, inplace=True)
      )
      (4): Sequential(
        (0): Conv2d(96, 64, kernel_size=(3, 3), stride=(1, 1), padding=(16, 16), dilation=(16, 16))
        (1): BatchNorm2d(64, eps=1e-05, momentum=0.1, affine=True, track_running_stats=True)
        (2): LeakyReLU(negative_slope=0.1, inplace=True)
      )
      (5): Sequential(
        (0): Conv2d(64, 32, kernel_size=(3, 3), stride=(1, 1), padding=(1, 1))
        (1): BatchNorm2d(32, eps=1e-05, momentum=0.1, affine=True, track_running_stats=True)
        (2): LeakyReLU(negative_slope=0.1, inplace=True)
      )
      (6): Conv2d(32, 96, kernel_size=(3, 3), stride=(1, 1), padding=(1, 1))
    )
    (3): Sequential(
      (0): Sequential(
        (0): Conv2d(320, 128, kernel_size=(3, 3), stride=(1, 1), padding=(1, 1))
        (1): BatchNorm2d(128, eps=1e-05, momentum=0.1, affine=True, track_running_stats=True)
        (2): LeakyReLU(negative_slope=0.1, inplace=True)
      )
      (1): Sequential(
        (0): Conv2d(128, 128, kernel_size=(3, 3), stride=(1, 1), padding=(2, 2), dilation=(2, 2))
        (1): BatchNorm2d(128, eps=1e-05, momentum=0.1, affine=True, track_running_stats=True)
        (2): LeakyReLU(negative_slope=0.1, inplace=True)
      )
      (2): Sequential(
        (0): Conv2d(128, 128, kernel_size=(3, 3), stride=(1, 1), padding=(4, 4), dilation=(4, 4))
        (1): BatchNorm2d(128, eps=1e-05, momentum=0.1, affine=True, track_running_stats=True)
        (2): LeakyReLU(negative_slope=0.1, inplace=True)
      )
      (3): Sequential(
        (0): Conv2d(128, 96, kernel_size=(3, 3), stride=(1, 1), padding=(8, 8), dilation=(8, 8))
        (1): BatchNorm2d(96, eps=1e-05, momentum=0.1, affine=True, track_running_stats=True)
        (2): LeakyReLU(negative_slope=0.1, inplace=True)
      )
      (4): Sequential(
        (0): Conv2d(96, 64, kernel_size=(3, 3), stride=(1, 1), padding=(16, 16), dilation=(16, 16))
        (1): BatchNorm2d(64, eps=1e-05, momentum=0.1, affine=True, track_running_stats=True)
        (2): LeakyReLU(negative_slope=0.1, inplace=True)
      )
      (5): Sequential(
        (0): Conv2d(64, 32, kernel_size=(3, 3), stride=(1, 1), padding=(1, 1))
        (1): BatchNorm2d(32, eps=1e-05, momentum=0.1, affine=True, track_running_stats=True)
        (2): LeakyReLU(negative_slope=0.1, inplace=True)
      )
      (6): Conv2d(32, 128, kernel_size=(3, 3), stride=(1, 1), padding=(1, 1))
    )
    (4): Sequential(
      (0): Sequential(
        (0): Conv2d(368, 128, kernel_size=(3, 3), stride=(1, 1), padding=(1, 1))
        (1): BatchNorm2d(128, eps=1e-05, momentum=0.1, affine=True, track_running_stats=True)
        (2): LeakyReLU(negative_slope=0.1, inplace=True)
      )
      (1): Sequential(
        (0): Conv2d(128, 128, kernel_size=(3, 3), stride=(1, 1), padding=(2, 2), dilation=(2, 2))
        (1): BatchNorm2d(128, eps=1e-05, momentum=0.1, affine=True, track_running_stats=True)
        (2): LeakyReLU(negative_slope=0.1, inplace=True)
      )
      (2): Sequential(
        (0): Conv2d(128, 128, kernel_size=(3, 3), stride=(1, 1), padding=(4, 4), dilation=(4, 4))
        (1): BatchNorm2d(128, eps=1e-05, momentum=0.1, affine=True, track_running_stats=True)
        (2): LeakyReLU(negative_slope=0.1, inplace=True)
      )
      (3): Sequential(
        (0): Conv2d(128, 96, kernel_size=(3, 3), stride=(1, 1), padding=(8, 8), dilation=(8, 8))
        (1): BatchNorm2d(96, eps=1e-05, momentum=0.1, affine=True, track_running_stats=True)
        (2): LeakyReLU(negative_slope=0.1, inplace=True)
      )
      (4): Sequential(
        (0): Conv2d(96, 64, kernel_size=(3, 3), stride=(1, 1), padding=(16, 16), dilation=(16, 16))
        (1): BatchNorm2d(64, eps=1e-05, momentum=0.1, affine=True, track_running_stats=True)
        (2): LeakyReLU(negative_slope=0.1, inplace=True)
      )
      (5): Sequential(
        (0): Conv2d(64, 32, kernel_size=(3, 3), stride=(1, 1), padding=(1, 1))
        (1): BatchNorm2d(32, eps=1e-05, momentum=0.1, affine=True, track_running_stats=True)
        (2): LeakyReLU(negative_slope=0.1, inplace=True)
      )
      (6): Conv2d(32, 152, kernel_size=(3, 3), stride=(1, 1), padding=(1, 1))
    )
  )
)

===========================================================================
Layer (type:depth-idx)                             Param #
===========================================================================
VCN                                                --
pspnet: 1-1                                      --
    conv2DBatchNormRelu: 2-1                    --
…
